trained/lenet-adder_MNIST_best.pt (torch, 250088 bytes, 8 tensors)

conv1.adder f4 [6, 1, 5, 5]
00000000: 99f8 cdad 6442 e12e c57d ccad fecd 9d2e
00000010: ac09 3c2d 85e8 55ae dfb0 a4ad f388 a8ae
00000020: 0ff6 2a2d 2a20 aaad baaf acae 0c03 3a2e
00000030: af17 582e 6fce fbae 475c c5ae a32c 80ae
00000040: 71f0 dfad 1979 232f 5696 7eae 1271 122d
00000050: 7856 52ae 984e e52e 5664 e12d 53f6 00af
00000060: 125e 30ae a523 0aae 2adb 8c2d 971e 712e
00000070: e6ff 1cae 8334 922e f284 b52e 3b69 8ead
00000080: edc9 8eae 60d3 e9ae ee81 792c d795 8b2d
00000090: 46c5 a22e 9a47 c2ae c872 21ae ee29 a4ad
000000a0: baad 2cae 28cd a3ae 063d 2b2e cdc7 10af
000000b0: 75c8 14ad 6e87 e8ae 8e45 032b e0d4 e1ae
000000c0: 66c4 d72d d4f8 5cae c655 7b2d d275 e5ad
000000d0: 77b5 aa2d 0579 97ae 1292 422f 37b2 8bae
000000e0: d28d b12e 057b a7ae c0cb c22d c2d8 46ad
000000f0: 68a6 b72e 78c9 8aae d741 40ad c3bd 9d2c
00000100: 0c0e 69ae 26ea 262e f536 322e 10a4 bd2e
00000110: 0c95 abad d0a9 b62d a17e 57ae 797d b52d
00000120: d1dc 192e 9eb0 d32e 0697 272e afd6 0bae
00000130: d691 412d 18ce 32ae eef0 102d 957d 0b2e
00000140: ec47 b82e bb19 ecae c3c0 2f2e 903f fc2e
00000150: 10a7 b42d 3c0f 1c2f 83e7 0a2e ebad 9c2c
00000160: e348 9eae 4d11 062e 4980 01ae f9da fe2d
00000170: 99ba adad a450 71ad 0e14 c7ae b40a 14ae
00000180: 65e3 c3ae a336 c42e 049d c02d 076b 1a2e
00000190: f370 9eae f360 07af 64a6 bb2e 0332 2bae
000001a0: fbeb 3e2e d91e 12ae a6de bfad 0f3c 712d
000001b0: 44ac ce2d 4697 6cae c998 e52e 5566 262e
000001c0: 1fda 60ad 1b05 8e2d 336e c5ae e091 56ae
000001d0: f83c bfae a97e 87ae c03c fbae fba2 b42e
000001e0: 90f9 61ae 6782 0bae 78a2 b1ac e034 ecae
000001f0: b975 2eae bf40 f32d a68d 43ae edff f4ad
00000200: dbfb f12d a1c7 022f 4e55 6aad d08f efae
00000210: b5e0 4dae 57f9 96ae 2614 262d 7bb4 892d
00000220: 607e a1ac 0a81 e02d 4078 27ac 8655 b7ad
00000230: 3e14 142d d0bb 2eaf f61d 10af a9f0 cf2d
00000240: 0893 09ab 5b25 202e 1db6 4bad f240 792c
00000250: 4371 a12e 702b 922e
-2.3416201e-11 1.0243609e-10 -2.3247968e-11 7.176125e-11 1.068871e-11 -4.863711e-11 -1.8723188e-11 -7.6640826e-11
9.718017e-12 -1.9341046e-11 -7.85287e-11 4.229421e-11 4.913375e-11 -1.14508285e-10 -8.9749146e-11 -5.828695e-11
-2.5458942e-11 1.4867786e-10 -5.788644e-11 8.324246e-12 -4.782527e-11 1.04276754e-10 2.5624097e-11 -1.1729044e-10
-4.0101318e-11 -3.1409226e-11 1.6013486e-11 5.4824225e-11 -3.5697577e-11 6.648639e-11 8.254543e-11 -1.6190263e-11
-6.4932816e-11 -1.0633161e-10 3.5457154e-12 1.5869013e-11 7.40195e-11 -8.8348176e-11 -3.6709108e-11 -1.8663262e-11
-3.9262572e-11 -7.448825e-11 3.8935098e-11 -1.3167707e-10 -8.457336e-12 -1.0574196e-10 4.6637076e-13 -1.02696296e-10
2.4529889e-11 -5.0243212e-11 1.4286744e-11 -2.6086609e-11 1.9407349e-11 -6.8881824e-11 1.7696092e-10 -6.3526455e-11
8.0742205e-11 -7.6161334e-11 2.214573e-11 -1.1303127e-11 8.351436e-11 -6.3113015e-11 -1.0928556e-11 4.483276e-12
-5.2990543e-11 3.7951996e-11 4.0521326e-11 8.623868e-11 -1.950664e-11 2.0766416e-11 -4.899781e-11 2.0633039e-11
3.4984297e-11 9.6265426e-11 3.810554e-11 -3.1795618e-11 1.1003162e-11 -4.0655562e-11 8.2389495e-12 3.171648e-11
8.380127e-11 -1.0736608e-10 3.99616e-11 1.1470924e-10 2.0537821e-11 1.419353e-10 3.158319e-11 4.4530954e-12
-7.1979554e-11 3.048344e-11 -2.9445144e-11 2.89737e-11 -1.9750689e-11 -1.371717e-11 -9.053035e-11 -3.366081e-11
-8.907967e-11 8.9227535e-11 2.1897602e-11 3.5110605e-11 -7.205072e-11 -1.2312622e-10 8.5333324e-11 -3.8925318e-11
4.341059e-11 -3.3223955e-11 -2.1813062e-11 1.37126e-11 2.349599e-11 -5.3794545e-11 1.04408544e-10 3.783492e-11
-1.27813584e-11 1.6145798e-11 -8.978098e-11 -4.878753e-11 -8.6965046e-11 -6.1615886e-11 -1.142495e-10 8.2144035e-11
-5.1380733e-11 -3.172076e-11 -5.0486802e-12 -1.074143e-10 -3.9667578e-11 2.7654655e-11 -4.4463676e-11 -2.7853242e-11
2.7510374e-11 1.1894354e-10 -1.33203015e-11 -1.0894008e-10 -4.6811183e-11 -6.865502e-11 9.440481e-12 1.5655246e-11
-4.5899257e-12 2.5523157e-11 -2.379888e-12 -2.0842671e-11 8.417321e-12 -1.5891932e-10 -1.3107368e-10 2.364005e-11
-4.8876224e-13 3.6412966e-11 -1.1579651e-11 3.542108e-12 7.341552e-11 6.6470274e-11

conv2.adder f4 [16, 6, 5, 5]
00000000: 5bc5 10ae e65f 56ad 3d6c 312d 5970 a5ae
00000010: 1ffb 962d 12cf e8ad 2442 b3ad e2be 2b2e
00000020: cbe1 d7ad 712f 0bae 309b 53ad 6299 65ac
00000030: f224 9b2e 9dc0 e42d 47ae 982d 1cc3 44ad
00000040: 0c24 072d b684 0aae f7c8 352d f7bd 0c2e
00000050: 46e3 392e b0ca 62ae acdc 2dae 7e3e 1c2e
00000060: e963 ec2e d7b8 a22c 0537 6cae 35f2 03ae
00000070: 48a0 f8ad d6b0 05ae f872 582d 6678 af2d
00000080: 12b3 302e 88ef 572e 3fab 90ad 80fc 94ad
00000090: 779d 902e bbdf 1c2c ce27 0e2d 9896 37ae
000000a0: 070a 54ae b502 72ac 414d d12d 0429 a9aa
000000b0: e887 b4ae 62b8 072e 8f30 0aae a680 652c
000000c0: 9a6a 8b2e 3965 1f2e 7f86 982d aa32 b52c
000000d0: a10c f32d 44cf e6ad e14a 972d 245a ff2d
000000e0: 79dd fbad f399 422e 88a1 5c2c c181 b7ac
000000f0: 71f3 a9ab 4642 86ae 4f0e 08ae 9bb5 3f2e
00000100: b527 942e a6b4 c0ad d9c0 8b2e 6c75 1aae
00000110: c700 47ac 83d5 28ad 5444 832d 4aab 122e
00000120: d90c b2ab c158 a4ae 6a45 4aac 8cb9 e42d
00000130: 8ac2 6fad 6009 ec2d a928 212e 381f 6ead
00000140: 33de bdad d7d6 e7ad 058c 52ae 7577 912d
00000150: a0b6 86ad 2913 44ae 011f 81ae 4296 c2ae
00000160: 6a94 17ad 3a6c 31ac 9683 1f2e 9c9b 9fad
00000170: 65f6 d8ad cdf3 90ad 7c72 fcad 08bd cdab
00000180: b0eb 9e2d a7c3 572e 4c62 53ac 2691 0fab
00000190: 2be0 812c 8ec6 b62d 8098 bbad e5d6 c6ad
000001a0: f8bc e72d a431 c72c 5ee0 9a2c 8b3a c72d
000001b0: 09ba aaac cff8 02ae 6fbd 3aad 2b5f 33ad
000001c0: 6c76 28ad 36b8 c5ad cf61 022e 9371 302c
000001d0: d4a9 fbad de40 adad 334e 312d 9840 0e2d
000001e0: 464a 0d2d b89a ae2d 110c 91ad f7b0 adac
000001f0: dad5 7b2d 45cd 0c2e 7256 8aaa e872 452d
00000200: 62ef 7fad 25b7 01ae 303d a32b edb2 072e
00000210: ed47 daac ee34 acac 3a9e 6ead cc41 3a2e
00000220: 354b 742d 975d 052e d51f b3ab 5ffb 01ae
00000230: df56 27ae 8808 ba2d f8a4 a32d 1986 cead
00000240: e912 42ae 10af 692c 3309 1b2c 7715 8fad
00000250: 1409 60ae 5d3f 45ae 3f9e 722d 0fee a2ad
00000260: 9e9b f1ad 6bcf 552e 7ff4 ca2d 9a60 432e
00000270: ac31 fa2d a316 2f2e 76c2 bb2b 1078 d9ad
00000280: da45 0b2e 64b7 462d e7e9 392c 15c6 762d
00000290: 888d abac 4870 052d 5f83 b62d 0532 9f2e
000002a0: 1f79 2fad 10d5 932c 6168 992d 1aa3 edab
000002b0: 9f3a 142e d3ce 07ad f0bb 8a2d f952 f4ac
000002c0: 46a5 7fad 50fb 0d2d 9ada dd2d 3680 302e
000002d0: 4abc ad2e 5346 63ae c0c8 86ad 86a0 19ae
000002e0: af50 01ae 0a64 2f2c 854f ea2c efc0 9c2d
000002f0: 0ca5 afa9 315b 902d ed41 abac 3b88 82ae
00000300: 4747 af2d 259d 4aae 3586 02ae bb43 b52c
00000310: efd1 942d 5f0f aa2b 8e2c b9ab 6037 312e
00000320: 9d2c a4ae c6e9 092d ed1e 90ae f920 3aad
00000330: 72ac e6ad 4f15 842d d0bc 842e c31e e6ad
00000340: f6c5 9b2d af09 1cae 2980 08ae d44c 8cad
00000350: e91b 42ad a372 00ac 4bca a5ad 1ad2 34ae
00000360: 5594 e42d eb56 2bad 3d95 42ae dd0b ea2c
00000370: 4d86 94ad f359 c2ac be12 54ae a2e3 092e
00000380: 9f3e 04ae 8480 e62d 87c1 e02d e054 8c2c
00000390: fdbf 44ae 8c78 20ae 5cf8 c82e 6d05 622d
000003a0: 59b1 c0ad 7b50 6b2d ccac d02d 097c a22b
000003b0: 873e 232e bcef 172d 6fd9 edad 1608 152d
000003c0: 38a9 ffac 8ed9 e1ad 3bdc f92d 5197 f22d
000003d0: 3c90 ebac 8e30 5aad 09dd cbad 270d b2ad
000003e0: 3a12 dcab 3a0e 492e f266 392e 92f9 4aae
000003f0: 51e6 442d 19b3 8f2d 3c8a b12d d404 17ae
-3.2917096e-11 -1.2185785e-11 1.0085319e-11 -7.523288e-11 1.7164546e-11 -2.6467304e-11 -2.0379316e-11 3.9050436e-11
-2.4542942e-11 -3.1647077e-11 -1.202842e-11 -3.2628002e-12 7.055147e-11 2.6006136e-11 1.7357794e-11 -1.1184633e-11
7.6818656e-12 -3.1495438e-11 1.0333282e-11 3.2001037e-11 4.226599e-11 -5.1566473e-11 -3.9531642e-11 3.5525798e-11
1.0749785e-10 4.6248383e-12 -5.3709055e-11 -3.0001075e-11 -2.8265515e-11 -3.039776e-11 1.2303707e-11 1.9948664e-11
4.0176813e-11 4.9098087e-11 -1.6446953e-11 -1.6937785e-11 6.576333e-11 2.2293129e-12 8.080604e-12 -4.1743137e-11
-4.8212125e-11 -3.4391771e-12 2.3794857e-11 -3.004889e-13 -8.209594e-11 3.085921e-11 -3.1420696e-11 3.2614272e-12
6.3399244e-11 3.6242318e-11 1.7340128e-11 5.1499542e-12 2.763151e-11 -2.6240017e-11 1.7199965e-11 2.9030174e-11
-2.863375e-11 4.4247227e-11 3.1353548e-12 -5.2155784e-12 -1.2075741e-12 -6.105387e-11 -3.093553e-11 4.358967e-11
6.737314e-11 -2.1908097e-11 6.355245e-11 -3.5119838e-11 -2.8280032e-12 -9.5971035e-12 1.492332e-11 3.3348692e-11
-1.2651227e-12 -7.4736224e-11 -2.874446e-12 2.6002998e-11 -1.36287735e-11 2.6834257e-11 3.6643275e-11 -1.3535666e-11
-2.1585489e-11 -2.6357068e-11 -4.7872834e-11 1.6537641e-11 -1.5315138e-11 -4.4582258e-11 -5.871748e-11 -8.84879e-11
-8.616311e-12 -2.521329e-12 3.6269286e-11 -1.8145312e-11 -2.4665778e-11 -1.6479174e-11 -2.8699924e-11 -1.4618593e-12
1.8067187e-11 4.9059114e-11 -3.003947e-12 -5.100524e-13 3.691288e-12 2.077918e-11 -2.1327162e-11 -2.2605426e-11
2.6345578e-11 5.6614314e-12 4.401853e-12 2.2649679e-11 -4.8523447e-12 -2.9779564e-11 -1.0614939e-11 -1.01961035e-11
-9.575989e-12 -2.2478113e-11 2.964545e-11 2.507415e-12 -2.8610815e-11 -1.969663e-11 1.0078649e-11 8.086108e-12
8.031414e-12 1.9850219e-11 -1.648995e-11 -4.9366028e-12 1.4315183e-11 3.201463e-11 -2.4573708e-13 1.1223668e-11
-1.45482255e-11 -2.949387e-11 1.159883e-12 3.0854364e-11 -6.203918e-12 -4.8944104e-12 -1.3563867e-11 4.2349943e-11
1.38864935e-11 3.0323823e-11 -1.272755e-12 -2.9554467e-11 -3.804856e-11 2.114954e-11 1.8604215e-11 -2.347904e-11
-4.412729e-11 3.320847e-12 2.2031931e-12 -1.626675e-11 -5.0939766e-11 -4.4848892e-11 1.3791245e-11 -1.8522987e-11
-2.7467636e-11 4.8614817e-11 2.307332e-11 4.4423666e-11 2.8443768e-11 3.98105e-11 1.3341123e-12 -2.4723362e-11
3.166698e-11 1.1295718e-11 2.6419923e-12 1.4027464e-11 -4.8758254e-12 7.585106e-12 2.0749345e-11 7.239368e-11
-9.974493e-12 4.201646e-12 1.744044e-11 -1.6885133e-12 3.370337e-11 -7.719786e-12 1.5772245e-11 -6.944109e-12
-1.453177e-11 8.070725e-12 2.522187e-11 4.013164e-11 7.900576e-11 -5.1676285e-11 -1.5323187e-11 -3.4930746e-11
-2.9402866e-11 2.4924529e-12 6.6595084e-12 1.7820826e-11 -7.800192e-14 1.6411402e-11 -4.8674315e-12 -5.935915e-11
1.992685e-11 -4.6069055e-11 -2.9677778e-11 5.151849e-12 1.6918881e-11 1.2083493e-12 -1.3157407e-12 4.0294323e-11
-7.4657815e-11 7.8394565e-12 -6.5538554e-11 -1.0580197e-11 -2.6224554e-11 1.5016125e-11 6.036205e-11 -2.6161634e-11
1.7709372e-11 -3.5478894e-11 -3.103665e-11 -1.5950276e-11 -1.10338206e-11 -1.825353e-12 -1.8848164e-11 -4.111387e-11
2.5986472e-11 -9.739524e-12 -4.4243043e-11 6.651997e-12 -1.6885294e-11 -5.523798e-12 -4.8219866e-11 3.1352372e-11
-3.0068944e-11 2.6205045e-11 2.5551795e-11 3.9884623e-12 -4.473576e-11 -3.6486855e-11 9.1390645e-11 1.2847817e-11
-2.1906631e-11 1.3376074e-11 2.37236e-11 1.1545219e-12 3.7117445e-11 8.636588e-12 -2.704034e-11 8.471465e-12
-7.266323e-12 -2.5676152e-11 2.8405825e-11 2.7579413e-11 -6.695115e-12 -1.2402647e-11 -2.3176587e-11 -2.0242098e-11
-1.5636999e-12 4.5714744e-11 4.2155564e-11 -4.6151145e-11 1.1192451e-11 1.6336753e-11 2.0183959e-11 -3.4337713e-11

fc1.weight f4 [120, 400]
00000000: 8ab0 f7aa a822 1c2b b3d2 432c 9104 1aab
00000010: 94fb 182b 297b a5ab 1d3b 06ac 8985 082b
00000020: af60 f6ab a25e ed2b e100 e1ab 0400 2aac
00000030: 107f 8aab c050 35ac 151a b62b ca9f 0e2b
00000040: 1244 3cac 420c 0e2c 6c27 20ab 3b56 3f2c
00000050: 2729 182c f07f f02b 5e7a f6ab f55a ab2b
00000060: c8e7 482b de2f 7ea9 c5b6 062a 18f1 a5aa
00000070: 0933 51ab 7e05 f72b 688a 4eac 498e af2b
00000080: 961f b72b af15 f0ab 692f 4b2c 1ab3 cbab
00000090: 247a 45ac c342 262c c1b9 0929 8f34 fbab
000000a0: 0876 202c d182 522a 7806 76ab fccf ebab
000000b0: 4888 802b 4eed 03ac 69d3 b32b 2c3d 482c
000000c0: 11c1 1eac 17c6 9a2b 2a10 c72a d753 4aac
000000d0: d606 3c2c 0ddf 35ac 61c5 f52b 0066 33ac
000000e0: becd 99ab 1d07 852b 3feb 66ab 315e 44ac
000000f0: 5cdb 91ab 5964 0d2c 44af 25ac d38c 102c
00000100: 471e c92b f0d1 2fab 5da4 1c2c 53ca d2a8
00000110: 2195 822b 7f80 ceab fb5b 96ab eaec 86ab
00000120: 7863 4f2b 5265 1a2c 8ddb f72a 92f9 b12b
00000130: 941f 0a2c c2bf 022c c7c5 4bac 5594 a22b
00000140: 2caf 48ac fca1 9c2b 3e5b 3cac fd74 50ac
00000150: 7aa2 1d2c 3e78 53ab 6236 ca29 9755 8a2b
00000160: 8845 3c2c e09f 772b 2c5a 052c ff79 582b
00000170: 2a97 a32b 1b74 d427 8fe4 21ac 6565 06ab
00000180: 6819 112c f665 1bac 1613 54ac eaf7 e32b
00000190: 0a99 692b 28ff 8dab 78eb 802b 1b7e d82b
000001a0: 093d 4eaa 4a89 20ac 5ad9 abab 3b25 1cac
000001b0: c0f7 422c 16e6 4e2c 2355 92aa f3d1 c52b
000001c0: a4d5 3aac a7c3 46ac c7c0 21ac 918f 07ac
000001d0: 9a77 fe2b 74bc 0a2c 0a1d 14ab 6394 402c
000001e0: b974 aaab 3c87 402c e509 00ac 799a 10aa
000001f0: 603c d3ab 24ad a62a dbde 0f2a c952 342b
00000200: 7612 38aa 3352 43ac c36c 0a29 727c 49ac
00000210: e0f8 0bab cecb f82b 437f 252c 0d20 f6ab
00000220: f087 0c2a 25ef 252c c0b7 42aa 501b 8f2b
00000230: 9936 0eac ef7f 132c e8c4 d8aa b827 482c
00000240: 1c8b abab 62d8 e2ab adeb 43ab 7378 87ab
00000250: 302a 432c fc80 c62a ca13 04ac 0e00 4dac
00000260: 4274 e82a c698 ebab 7562 23ab 6873 b62b
00000270: b2cd 052c e93a 952b 4a7d c1ab 1124 0f2c
00000280: 516b ff28 c294 faab 21e3 032c 8e7e 552b
00000290: 3d72 52ac aae9 c0aa 8832 a2ab c788 8eab
000002a0: 4858 062c 088b 1aaa 5906 8cab ac72 4a2c
000002b0: 7f12 37ac d01e eba9 d34a ba2b 08bc 7c2b
000002c0: e07e f42b d054 b5a9 f40d 3aac 8f0c e3ab
000002d0: 8a12 9bab fae7 a3ab 35b0 472c ea88 60ab
000002e0: ee12 f8ab 6830 1dac 48a1 fcab f92c 552c
000002f0: ba65 e32b 000c 402c f32c 2a2c 675c 402b
00000300: 3101 17ac 291c 072c 1008 56ab abd6 10ac
00000310: 2b7b 6928 d774 b6aa 3803 312c b923 ac2b
00000320: 2aae 9c2b 32ef 0f2c 8a88 e228 6197 072c
00000330: 9168 d9ab 38ca ef2b 1c4e 712a 67fa 39aa
00000340: 1dc6 412b 8fe4 0daa 9ad9 952b 1d1c f8ab
00000350: 1162 932a 5d65 632a 4bc2 4c2c 3d64 182c
00000360: 69e5 54ac 8b9f b0ab c268 f82b c285 682b
00000370: 549f 572b 00c7 032c d68d e82b fd06 522c
00000380: 35c5 bcaa b847 b6aa d415 6d2b 95c2 1d2c
00000390: 33e7 12ac 619b e1ab 82d2 33ab 22b6 b0ab
000003a0: 8f6d 6aab be0d 4e2c ef02 45ac abed 342c
000003b0: 7ea2 212b 614b 44ac 5857 6fab 0081 322c
000003c0: 49f1 8fab 31d0 e5ab 659e 3e2a 6738 e92b
000003d0: 100b dbaa ef9f 67ab 69bb 53ac f329 4d2c
000003e0: 2b49 78aa 3019 ea2b 40b2 84ab b1fe 22ac
000003f0: e983 f42b 4ee2 9eab a053 eda8 7d1b 4f2c
-4.3998513e-13 5.547043e-13 2.7828128e-12 -5.471813e-13 5.435038e-13 -1.1758139e-12 -1.907536e-12 4.8502223e-13
-1.7506186e-12 1.6866129e-12 -1.5987456e-12 -2.4158462e-12 -9.840757e-13 -2.5766472e-12 1.2939117e-12 5.0670286e-13
-2.6754193e-12 2.0186218e-12 -5.689813e-13 2.71906e-12 2.1623343e-12 1.7088535e-12 -1.7513315e-12 1.2175526e-12
7.1375935e-13 -5.6440848e-14 1.1965002e-13 -2.947718e-13 -7.432254e-13 1.755193e-12 -2.9351192e-12 1.247399e-12
1.3011699e-12 -1.7059044e-12 2.8874353e-12 -1.4473728e-12 -2.8063185e-12 2.362708e-12 3.0581227e-14 -1.7849211e-12
2.2802888e-12 1.8697133e-13 -8.7405734e-13 -1.6755482e-12 9.132773e-13 -1.874795e-12 1.2777393e-12 2.8455667e-12
-2.2560324e-12 1.0997339e-12 3.5360717e-13 -2.8752467e-12 2.6720202e-12 -2.5845465e-12 1.7463081e-12 -2.5494051e-12
-1.0928409e-12 9.452193e-13 -8.2038884e-13 -2.7905562e-12 -1.0363754e-12 2.009301e-12 -2.3545202e-12 2.0541804e-12
1.4290313e-12 -6.2463836e-13 2.2260173e-12 -2.3402428e-14 9.278447e-13 -1.4672845e-12 -1.0683671e-12 -9.58703e-13
7.3679214e-13 2.194096e-12 4.4028358e-13 1.2645876e-12 1.9628509e-12 1.8580558e-12 -2.8957824e-12 1.1551963e-12
-2.851895e-12 1.1129426e-12 -2.6767056e-12 -2.962352e-12 2.2401235e-12 -7.512913e-13 8.980036e-14 9.829246e-13
2.6755004e-12 8.79739e-13 1.8950492e-12 7.690792e-13 1.1623803e-12 5.89677e-15 -2.3006352e-12 -4.7747076e-13
2.0619843e-12 -2.2083424e-12 -3.0137607e-12 1.619813e-12 8.2990613e-13 -1.0089473e-12 9.160303e-13 1.5382724e-12
-1.8317651e-13 -2.2813578e-12 -1.2210608e-12 -2.21896e-12 2.7706587e-12 2.9402084e-12 -2.5993885e-13 1.4055965e-12
-2.6550784e-12 -2.8246101e-12 -2.298649e-12 -1.926435e-12 1.8080982e-12 1.9715592e-12 -5.262046e-13 2.7367212e-12
-1.2111624e-12 2.7359911e-12 -1.8195387e-12 -1.2843363e-13 -1.5009209e-12 2.9607664e-13 1.277827e-13 6.4063734e-13
-1.6348888e-13 -2.7756796e-12 3.073649e-14 -2.86329e-12 -4.9728104e-13 1.7678027e-12 2.3518555e-12 -1.7488247e-12
1.248166e-13 2.3580662e-12 -1.7294412e-13 1.0168342e-12 -2.0209721e-12 2.0960974e-12 -3.850594e-13 2.8443758e-12
-1.2188891e-12 -1.6118324e-12 -6.960498e-13 -9.625758e-13 2.7734585e-12 3.5261366e-13 -1.8769313e-12 -2.9132283e-12
4.129215e-13 -1.6740157e-12 -5.804587e-13 1.296391e-12 1.901462e-12 1.0603438e-12 -1.374825e-12 2.0341543e-12
2.8357228e-14 -1.7804857e-12 1.8742302e-12 7.584843e-13 -2.990621e-12 -3.4268188e-13 -1.1524818e-12 -1.012767e-12
1.9091551e-12 -1.3726184e-13 -9.94936e-13 2.8769582e-12 -2.6016132e-12 -1.04414415e-13 1.3236863e-12 8.978933e-13
1.7372458e-12 -8.052727e-14 -2.6439935e-12 -1.6132806e-12 -1.1018558e-12 -1.1646233e-12 2.8377415e-12 -7.9770793e-13
-1.7626714e-12 -2.2337913e-12 -1.7950441e-12 3.0294085e-12 1.6157555e-12 2.7291502e-12 2.4183405e-12 6.8340337e-13
-2.1459052e-12 1.9200286e-12 -7.603926e-13 -2.0582795e-12 1.2960806e-14 -3.2410768e-13 2.5155e-12 1.223125e-12
1.1132807e-12 2.0454302e-12 2.5150255e-14 1.9268686e-12 -1.54478e-12 1.7038098e-12 2.14322e-13 -1.6518177e-13
6.884231e-13 -1.2602613e-13 1.0647483e-12 -1.7629263e-12 2.6180493e-13 2.0196818e-13 2.9097998e-12 2.1656143e-12
-3.025436e-12 -1.2549834e-12 1.7650536e-12 8.2608584e-13 7.6604456e-13 1.8726687e-12 1.6523959e-12 2.9846674e-12
-3.3532348e-13 -3.237946e-13 8.4229607e-13 2.2419057e-12 -2.087619e-12 -1.6030338e-12 -6.3885713e-13 -1.2556104e-12
-8.3285543e-13 2.928199e-12 -2.7997012e-12 2.571147e-12 5.7424193e-13 -2.789512e-12 -8.503107e-13 2.536693e-12
-1.0227731e-12 -1.6329213e-12 1.6930344e-13 1.65713e-12 -3.890989e-13 -8.228964e-13 -3.0088937e-12 2.9155539e-12
-2.205221e-13 1.6633691e-12 -9.428638e-13 -2.3162967e-12 1.7373855e-12 -1.1289387e-12 -2.6348552e-14 2.9431728e-12

fc1.bias f4 [120]
00000000: 1072 352c f12c afb5 7842 08b7 f8f0 2aab
00000010: 9104 46ae 7ab2 96ab 76df 4eb1 c36b 05b5
00000020: e132 d1ad effd c12a b66f 67ae 026b ecab
00000030: 42cb dbad 9e8f aaaf 8e65 62ab 14b8 34ad
00000040: 7df1 502b 442e 42b4 ef81 9aae a834 56b5
00000050: 154c 31b4 8bf6 062b 3550 5db5 0564 b72b
00000060: d233 35ac b47e 42ab 0523 aaae cf21 9ab3
00000070: f6d9 ccad 909f d7af 2d1c 03b0 4591 24ad
00000080: c2a1 d6ab 28a7 6ab5 2e27 75ac 1b71 0bac
00000090: 51f1 41ad e979 4eaf f82c 03ac dda0 30b0
000000a0: b990 6daf aea5 61ae 6f39 29ad 5118 22ad
000000b0: 8583 242c 4e9c 81ac bbed 3bac 3bbc 16ac
000000c0: aa34 aaa9 ae93 95ae 4fc2 f9ab 53dc e32b
000000d0: a9b5 e22b 1c54 28ac 7136 97b5 a49f 1eae
000000e0: 3b84 9dab 0672 9bb5 6af6 b3af 5038 052c
000000f0: f066 0a2a da2f 022b b19d 11b4 eeee 57ad
00000100: 434b 85ae b278 a7b4 1848 af2b 11c5 01ae
00000110: 5f39 efb6 e9aa 28ac ff8f 512c 7a0f 1cac
00000120: 6eba bbad d7fe 7eac 80a0 04ac 4ff5 36aa
00000130: eec5 a92b 45ab 12b0 3970 ffa9 34d9 58ae
00000140: 7849 1ab5 1f9c bfab 8883 deb6 d75e 38ac
00000150: c9b0 062c ef38 292c 809b e4ad fb5e 43b4
00000160: 2ca5 a32b a6bb acab a67e 20b4 0ab2 e9b4
00000170: 6b5f 29ac 9dea 282c 8ca3 2c2c 09f7 a8ae
00000180: 0c57 35ac be27 f527 e812 50ae 4b1e 362b
00000190: 8201 2fac f051 9bab a048 182a d861 a8ad
000001a0: ce17 852b 9a26 cfb4 8d7a a4b4 26dd a8ab
000001b0: c584 51ae 3df0 93ae d1bc 13ac b280 d0ab
000001c0: 3d7b 9aab 1fd7 79ae 6960 5ab4 e6df b2ad
000001d0: 3a3e 8eab fa51 cfa5 3193 90ad 5da5 a92b
2.5784964e-12 -1.3051596e-06 -8.121708e-06 -6.0730544e-13 -4.5024044e-11 -1.0707678e-12 -3.0103968e-09 -4.9703175e-07
-2.3783144e-11 3.445989e-13 -5.262254e-11 -1.6798509e-12 -2.4987682e-11 -3.1024866e-10 -8.0432265e-13 -1.0272689e-11
7.4231577e-13 -1.8084489e-07 -7.02619e-11 -7.979784e-07 -1.6512088e-07 4.794851e-13 -8.244563e-07 1.3030693e-12
-2.5750413e-12 -6.909848e-13 -7.736926e-11 -7.1773336e-08 -2.3288909e-11 -3.9221648e-10 -4.769756e-10 -9.354577e-12
-1.5250511e-12 -8.741504e-07 -3.4838343e-12 -1.9815874e-12 -1.1024363e-11 -1.8778902e-10 -1.8641182e-12 -6.425703e-10
-2.160644e-10 -5.130623e-11 -9.619291e-12 -9.214033e-12 2.337881e-12 -3.683754e-12 -2.6706265e-12 -2.142077e-12
-7.558652e-14 -6.801969e-11 -1.7746446e-12 1.6190472e-12 1.6108687e-12 -2.3920926e-12 -1.1266221e-06 -3.606683e-11
-1.1192222e-12 -1.1581585e-06 -3.2734998e-10 1.8931696e-12 1.2292576e-13 4.6251685e-13 -1.3561545e-07 -1.2274388e-11
-6.061509e-11 -3.119399e-07 1.2454508e-12 -2.9506234e-11 -7.129434e-06 -2.396911e-12 2.978062e-12 -2.2177525e-12
-2.134223e-11 -3.6237036e-12 -1.8847424e-12 -1.6249956e-13 1.2063109e-12 -5.335788e-10 -1.13437424e-13 -4.930563e-11
-5.747638e-07 -1.3614699e-12 -6.631428e-06 -2.620062e-12 1.914068e-12 2.404795e-12 -2.5989655e-11 -1.8195344e-07
1.1627691e-12 -1.2273418e-12 -1.4947236e-07 -4.3529172e-07 -2.4069312e-12 2.4004472e-12 2.4533457e-12 -7.683638e-11
-2.5769968e-12 6.804425e-15 -4.7310517e-11 6.470143e-13 -2.4869833e-12 -1.1036155e-12 1.3525509e-13 -1.914284e-11
9.456826e-13 -3.858484e-07 -3.0636548e-07 -1.1998499e-12 -4.763902e-11 -6.727461e-11 -2.099477e-12 -1.4815009e-12
-1.0976564e-12 -5.680711e-11 -2.0337906e-07 -2.0335688e-11 -1.0106978e-12 -3.5964325e-16 -1.643627e-11 1.205407e-12

fc2.weight f4 [84, 120]
00000000: 3571 e52a 9baa 012b 1595 d2c0 8347 cb2b
00000010: 05d9 f4ae d015 992b d570 592b aa4a 53ac
00000020: 2fae 89ae 7553 beae 37eb 2eaf ab84 37af
00000030: af4e 9aae f506 6a2c 08bf eeae cc47 ddad
00000040: 0b98 bbad 58c8 99ac cd10 3eaf fe18 0aac
00000050: 6f47 672c 9a35 39af 14a1 3aac 8559 86af
00000060: 2253 d2ae 2465 012b 121c 6baf 34cc 43ab
00000070: 2f17 55ae cdeb 352b 7ecf b02c 95a4 1cae
00000080: 2029 1b2c d4d9 47ac a17b 91ae 8aec b5ac
00000090: 10f2 b3ad a316 c328 b356 602c 05e9 3faa
000000a0: d282 a02c 6c56 f6ae ec72 5fae 6254 06ad
000000b0: 1c87 25ae d02c fcae aeb5 3fae d0ed 2fab
000000c0: af7d 8fac a227 41af cd70 33ae adeb 292c
000000d0: 4d6f 99ac fd25 30af 58d0 97ac 6894 c9ae
000000e0: 600f 9cac ffbe c2b0 34a7 84ac ba82 c2ad
000000f0: 1156 a7ae ef55 8b2c ef4b 552c d8ce edad
00000100: 2b77 2eaf e006 98ac c573 bfae f146 79ae
00000110: da9b 05b8 f4a2 edad 3278 a82c 280e a0ae
00000120: cb99 85ae bd36 96ae b0ed 05ae e30b 27ab
00000130: 5a0a ffab 5b96 6aac 9fe9 abad 945b 07af
00000140: b5d7 0dad d58f 41ac 5022 f4c1 e058 852c
00000150: f12c b52c 7905 a4ac 3f96 b0ae 65d9 8bac
00000160: ffca 962c 9255 4d2b 0b9c 8dac fe36 aaa9
00000170: 0ab3 3eaf 9572 d2ae 36b5 81ac 542c 56af
00000180: 2ac5 c7ae 8287 fdae 3ab1 0caf 148a 89ae
00000190: 6b6a 69ae faa7 94ae 0611 ccae 11c0 38ae
000001a0: dced 16ad a0e5 312c 66ea 82ac a604 ffad
000001b0: 8b71 12af 2dd5 35af 46aa 3eaf cc7f f92b
000001c0: 8780 60af a252 21af c0ca 342c eecf 57ae
000001d0: 670f e1ab 9177 a9af a8f1 42ae 26b1 47ac
000001e0: 1388 3aac fd6d 2fac 52b8 3a2c 69b1 732c
000001f0: ef26 b4ac 92c6 0cac 71b7 78ab ae66 aa2b
00000200: d6a3 972c 3ece 962c 5b7f 72ac d188 15ac
00000210: 4d73 2dac 957e a9ac be1c 3bac cc46 8dac
00000220: 5037 2d2c 826b ebab 8cca 722c d978 44b1
00000230: af0f 332b dd5b 92ac 67f9 90ac 1944 8f2c
00000240: 4a51 462c 9a97 6cac 2faf a1ac a36f c32b
00000250: ee73 aaab c68e 0bac dee4 d2ab e735 662c
00000260: 4bcb 04ac a680 9b2c 6030 a1ab c5c5 c2ac
00000270: 01e8 9bac fc23 bf2c 4ede 9bac f308 32ac
00000280: 1a4a 092c 16ba 91ac 6d01 492a 0079 b6ac
00000290: bf27 382b 625b 44ac ea97 822c 5fce ffa9
000002a0: 8bdd a7ac 2980 4b2c e3d6 64ac 7328 92aa
000002b0: 5628 b52c 5ca3 3f2c 425b fb31 73e2 f22b
000002c0: 7dbf 01ac 05a9 f0aa ee6b 98ac bde1 ac2c
000002d0: b601 82ac c126 21ab 38a0 3ab0 3e5b 242c
000002e0: dea9 2d2c d9d2 47b8 0d0c 8c2b 8f17 822b
000002f0: fd80 afac 14a2 b02b 63e0 2dac 4aec 89ac
00000300: 42c9 12ab baf2 acac 628a 9cac 3b6e b72b
00000310: b8ed 82ac dbcf 9aac e802 5cac 3af5 272b
00000320: 73c8 7533 a124 95ac 6d19 a3ac 8bc3 bdab
00000330: dcf7 212c b601 82ab fa1e a4ac 87f9 24b0
00000340: ae47 b92b a3c6 622c 7472 aa2c e9c2 fdb0
00000350: 52d0 802c c340 802c fc05 8e2b cf97 1c2c
00000360: 6a0c 30ac 2df7 1dac 6be5 2c2b 82a6 532c
00000370: 8ca0 502c 8f2d 12ac b30b 27aa 885e 75ab
00000380: 17d9 8eab 1edd 77b2 9e20 ff35 da7c abac
00000390: b44e 9e2c 2d31 a9ac d1b1 642c 9568 b3ac
000003a0: b1cc 7eac aec0 b62b 0034 45ac ce68 76ac
000003b0: d465 7a2c 1d6d 5aaa 1e9f 4eab 7bae f92a
000003c0: e0e2 73ac cfb7 1dab ecee 0cb3 abe5 bdac
000003d0: 4312 b7ac d60d 4bac 9b98 e5aa a157 b52c
000003e0: 20bf 07ac df4f 9f2c fdd0 a029 1921 2aab
000003f0: f287 d0a9 ec53 bb2a 4e4a b52c 10ea 3aac
4.0757125e-13 4.606677e-13 -6.5806985 1.4443866e-12 -1.1134386e-10 1.0877358e-12 7.7250473e-13 -3.002635e-12
-6.26098e-11 -8.6550246e-11 -1.5908773e-10 -1.6690886e-10 -7.017086e-11 3.3257262e-12 -1.0856921e-10 -2.5156675e-11
-2.132696e-11 -4.370764e-12 -1.7286368e-10 -1.9624853e-12 3.2866728e-12 -1.6844695e-10 -2.6521606e-12 -2.4438065e-10
-9.564462e-11 4.5970367e-13 -2.1383098e-10 -6.9561306e-13 -4.8451184e-11 6.4631357e-13 5.025257e-12 -3.561647e-11
2.2049654e-12 -2.840052e-12 -6.6157975e-11 -5.1705905e-12 -2.0457441e-11 2.1659166e-14 3.1880442e-12 -1.7045053e-13
4.5619975e-12 -1.12021364e-10 -5.08064e-11 -7.635755e-12 -3.7636658e-11 -1.14675935e-10 -4.3589736e-11 -6.250252e-13
-4.078258e-12 -1.7567328e-10 -4.0800075e-11 2.414717e-12 -4.3608784e-12 -1.6020603e-10 -4.314809e-12 -9.166784e-11
-4.4354936e-12 -1.4169642e-09 -3.770229e-12 -2.21133e-11 -7.609569e-11 3.960158e-12 3.0311272e-12 -2.7035638e-11
-1.5867545e-10 -4.320863e-12 -8.706239e-11 -5.6679054e-11 -3.185482e-05 -2.7016146e-11 4.7881915e-12 -7.278472e-11
-6.075459e-11 -6.830934e-11 -3.0451808e-11 -5.9346815e-13 -1.8121713e-12 -3.3336864e-12 -1.9544198e-11 -1.2310714e-10
-8.062819e-12 -2.7506792e-12 -30.516754 3.7899545e-12 5.149319e-12 -4.661768e-12 -8.0302424e-11 -3.9747533e-12
4.2857935e-12 7.2949383e-13 -4.0247853e-12 -7.559056e-14 -1.7344007e-10 -9.570048e-11 -3.686519e-12 -1.9478935e-10
-9.084496e-11 -1.1529179e-10 -1.279589e-10 -6.254566e-11 -5.3072585e-11 -6.7600994e-11 -9.27987e-11 -4.2007346e-11
-8.579328e-12 2.528068e-12 -3.7208457e-12 -2.8992208e-11 -1.3318961e-10 -1.653759e-10 -1.7340893e-10 1.7727985e-12
-2.0418343e-10 -1.4672222e-10 2.5692087e-12 -4.907002e-11 -1.5991487e-12 -3.0825878e-10 -4.4325127e-11 -2.8377938e-12
-2.6507726e-12 -2.4930052e-12 2.6534508e-12 3.463086e-12 -5.12023e-12 -2.0005425e-12 -8.8361875e-13 1.2107726e-12
4.3098676e-12 4.286154e-12 -3.4460965e-12 -2.1250122e-12 -2.4648783e-12 -4.8173223e-12 -2.6590253e-12 -4.015321e-12
2.4615483e-12 -1.6727594e-12 3.4502705e-12 -2.8590448e-09 6.361534e-13 -4.1597684e-12 -4.1204154e-12 4.071865e-12
2.8182617e-12 -3.3621773e-12 -4.5953445e-12 1.3886569e-12 -1.2111403e-12 -1.9832343e-12 -1.4984921e-12 3.2714888e-12
-1.8871178e-12 4.419648e-12 -1.1453165e-12 -5.5357685e-12 -4.4311226e-12 5.4325416e-12 -4.4300457e-12 -2.530029e-12
1.9510006e-12 -4.1418076e-12 1.7852881e-13 -5.186185e-12 6.542509e-13 -2.7904003e-12 3.711688e-12 -1.13600745e-13
-4.7710217e-12 2.8919178e-12 -3.2520035e-12 -2.5962877e-13 5.1488076e-12 2.7233415e-12 7.3154363e-09 1.7257986e-12
-1.84383e-12 -4.2749845e-13 -4.3320824e-12 4.913596e-12 -3.695012e-12 -5.725247e-13 -6.789409e-10 2.3356451e-12
2.4679074e-12 -4.7641664e-05 9.950943e-13 9.243594e-13 -4.9881197e-12 1.2550538e-12 -2.4709338e-12 -3.9200075e-12
-5.214892e-13 -4.915482e-12 -4.4491502e-12 1.3033527e-12 -3.7212143e-12 -4.40002e-12 -3.1265494e-12 5.967064e-13
5.7225815e-08 -4.2389013e-12 -4.6355615e-12 -1.3483532e-12 2.3017066e-12 -9.23753e-13 -4.6645994e-12 -6.001745e-10
1.3164936e-12 3.2226797e-12 4.8443975e-12 -1.846357e-09 3.661107e-12 3.645169e-12 1.0091368e-12 2.2253204e-12
-2.5017995e-12 -2.2448252e-12 6.1425057e-13 3.0077334e-12 2.96477e-12 -2.0773138e-12 -1.4836639e-13 -8.7172674e-13
-1.0149961e-12 -1.44275685e-08 1.9008473e-06 -4.8739736e-12 4.499368e-12 -4.8087285e-12 3.2499457e-12 -5.099097e-12
-3.6209198e-12 1.2985357e-12 -2.802425e-12 -3.501688e-12 3.5583663e-12 -1.9400146e-13 -7.340672e-13 4.4352355e-13
-3.4658318e-12 -5.603269e-13 -3.281359e-08 -5.3972013e-12 -5.2032003e-12 -2.8855716e-12 -4.0784463e-13 5.154058e-12
-1.929075e-12 4.5279193e-12 7.141681e-14 -6.0442065e-13 -9.260638e-14 3.3276105e-13 5.152579e-12 -2.656212e-12

fc2.bias f4 [84]
00000000: ed06 dab4 912a 5ab1 0272 acb2 8572 54b5
00000010: bda8 0eb5 61a6 9fb6 67dd 61b1 0fbb 53b7
00000020: 56b0 43b6 64f6 cdb4 11e8 f7b6 d86d a2b5
00000030: 6b53 fbb1 0f46 f6b5 063d a6b6 e3ea c8b4
00000040: 20bb a4b6 53dd 0db2 0f8c 57b8 b480 92b2
00000050: 5157 a2b6 5e9a 62b8 16e4 9bb5 ef7d 09b8
00000060: 71eb b5b5 cd2d 3ab8 af6d aab5 70e5 6cb3
00000070: 1990 04b3 65c2 91b3 4f4d 1cb1 88a1 4eb4
00000080: 809d bdb5 c2aa 50b0 b47a eab4 ccda 25b5
00000090: e426 29b5 3673 c8b2 2a63 ceb2 f259 06b8
000000a0: cdd8 00b8 81e4 66b2 c43f 5db5 917b 12b6
000000b0: 2e95 94b5 50e4 e5b4 b89b fab6 e06c d2b7
000000c0: 63a7 0db7 9870 c8b4 5131 bbb7 1561 f7b0
000000d0: cb1b 01b2 2ac4 91b4 b4b3 dab4 a299 aeb7
000000e0: 0f80 8bb4 0a81 e2b4 2fd2 bcb5 ded5 ddb7
000000f0: ca50 11b5 3f29 19b8 0df7 d5b7 56dd 47b5
00000100: d515 2fb1 6ca1 b2b5 e849 e5b5 88c2 d2b6
00000110: 9994 19b2 6c38 c5b4 2623 06b0 8338 bdb4
00000120: f9d0 e5b4 0c6a feb4 abfe 51b8 e7d0 feb4
00000130: b04b 54b6 69d6 77b5 65f4 aab4 9263 81af
00000140: d61a b4b5 5bc4 d4af ae6e efb6 38fd 88b2
-4.0610703e-07 -3.1747371e-09 -2.007528e-08 -7.91428e-07 -5.314467e-07 -4.7579383e-06 -3.2867662e-09 -1.2620133e-05
-2.9159905e-06 -3.8363498e-07 -7.3881897e-06 -1.2101909e-06 -7.314545e-09 -1.8348818e-06 -4.9542896e-06 -3.7423806e-07
-4.909365e-06 -8.2576035e-09 -5.1390434e-05 -1.7055164e-08 -4.838141e-06 -5.4026365e-05 -1.1614782e-06 -3.278063e-05
-1.3554073e-06 -4.438851e-05 -1.2697909e-06 -5.5156704e-08 -3.08647e-08 -6.787449e-08 -2.2744933e-09 -1.924401e-07
-1.4127436e-06 -7.591262e-10 -4.3675175e-07 -6.178568e-07 -6.3014e-07 -2.3335456e-08 -2.4026651e-08 -3.2031858e-05
-3.071949e-05 -1.3439718e-08 -8.2421707e-07 -2.182762e-06 -1.1070276e-06 -4.2820693e-07 -7.4687086e-06 -2.508465e-05
-8.443228e-06 -3.7334826e-07 -2.2315102e-05 -1.7999208e-09 -7.515108e-09 -2.7151083e-07 -4.0736415e-07 -2.0813957e-05
-2.5983942e-07 -4.218967e-07 -1.4068263e-06 -2.6444843e-05 -5.4134273e-07 -3.6516456e-05 -2.550662e-05 -7.4455363e-07
-2.5478262e-09 -1.3309013e-06 -1.7083339e-06 -6.281134e-06 -8.939559e-09 -3.6735162e-07 -4.8798865e-10 -3.524511e-07
-4.2806622e-07 -4.7388346e-07 -5.006666e-05 -4.7463183e-07 -3.1634518e-06 -9.232668e-07 -3.1842788e-07 -2.3535712e-10
-1.3418855e-06 -3.8702094e-10 -7.13564e-06 -1.5947634e-08

fc3.weight f4 [10, 84]
00000000: 3f14 2237 c2a5 2832 42ec 3533 f6f3 4b37
00000010: 0548 5934 3b7f 9d36 b781 f634 0a37 d537
00000020: f947 a635 80f4 a834 3fed 9b36 b7d5 f734
00000030: 1212 3737 0e72 5337 ba00 e336 8839 9034
00000040: 7eae 4e36 e32e b83a 604f 2838 9348 d634
00000050: d8d6 4a36 4b8f 1138 9678 2035 75c9 bd37
00000060: 86f8 2835 ab6a c637 ff6b 2335 d346 3336
00000070: 4e17 ff33 06a6 1833 939a 9033 e499 0b34
00000080: 74dd 5037 9603 e631 cfe7 8534 7863 d734
00000090: 1edb c234 ef6d 0834 782a d633 aeaa 8537
000000a0: 6fbf 3738 a7ef 1133 d210 4538 3186 4037
000000b0: b853 9034 6f71 6b36 6367 0c37 e6fd 8137
000000c0: ac5c 0237 ba26 9334 9584 9137 ad97 8932
000000d0: 9d85 b833 4ba1 a234 6fae 8d34 eb78 fc37
000000e0: 2043 d934 2560 a234 47b5 1035 0209 e137
000000f0: ca53 0c36 1f84 3238 f15f 7237 7ee6 d134
00000100: 1b5b bb32 2198 3a37 f5a1 d137 f22c ec36
00000110: 6b5f b837 4bb8 1335 6fee 8030 e8b1 c534
00000120: 0f38 cc33 4891 2935 99bf 0e38 3b38 8134
00000130: a156 a637 315e 4435 39af 3a36 9ce6 0c32
00000140: ba68 3335 b608 a32f 10b8 e837 008c d333
00000150: 37f7 4b37 a367 4b32 bff6 9533 af2a 6637
00000160: e33d e0b5 d802 3eb8 227a f934 90d3 a8b7
00000170: c053 0636 4a6a c034 3089 3bb8 81a5 0e35
00000180: 5058 6837 de22 ffb8 e0a2 6ab7 f568 a034
00000190: 55c1 cdb7 93c6 e93a 4042 1bb9 e5c1 0735
000001a0: 870a f1b7 ab34 50b9 aa77 3935 f793 ccb8
000001b0: c72d 2235 5b89 0ab9 bfe7 3635 6bcd 6236
000001c0: 96ea 5834 9e5c b932 a0e5 0534 7520 1934
000001d0: 197b acb8 3ccd 7b32 3609 a534 9ee4 bf34
000001e0: 1f6c dc34 a9ae 5b34 03fc 3234 c799 1eb9
000001f0: bd1e 92b8 0bd6 8633 bdd9 7938 29ed c936
00000200: b7ff 30b6 5ab7 d135 1667 a9b8 76ad 1cb9
00000210: 52a6 8fb8 bd7e 9434 65d7 02b9 7f3e ad32
00000220: 6428 2634 5a34 b034 193f 9b34 50f4 1db8
00000230: 006a ee34 b3a5 4db6 6b19 8ab6 5f48 12b9
00000240: 8e2c 2d36 22b8 c9b8 c28e c4b8 291b 22b6
00000250: 2de8 eb32 2285 6c37 e169 4db9 0476 8eb8
00000260: 5101 ea37 cf9c 2135 b8e0 9a30 c4ea 76b6
00000270: e059 2ab5 4b44 3835 c2ce 1bb9 665f 9634
00000280: 44af 48b9 d5b1 6435 dc30 6b36 2cce 2832
00000290: 3d4f 4f35 adb8 bb2f 5b9e 1a38 0bf9 2334
000002a0: 72d4 ca36 da29 3232 c805 6433 148f fd36
000002b0: 457c 4e34 4a0a b236 5c42 c334 0ef1 9737
000002c0: 29ba c335 8a6b 8d34 db65 b036 59a7 d334
000002d0: 0672 e136 3ba3 6e37 c96a af36 8db4 6e34
000002e0: 7fa0 5e36 cbb4 623a bc18 0f38 73c4 8634
000002f0: 686d 6536 788f 0938 07f2 0735 1050 a737
00000300: 31ba 0735 653d ba37 de47 0635 ea08 de35
00000310: d20a 2b34 6577 3033 d62f ca33 2c6e e533
00000320: 034c 6f37 73e1 0832 5800 7334 0121 b334
00000330: 7c66 a834 8728 3134 8374 0d34 096a 9637
00000340: 4e27 0a38 79ee 4c33 ed1a f337 6e5e fb36
00000350: a0da 7c34 821b 1536 0eba 1e37 44f0 9237
00000360: 3feb 1037 883a 7f34 9b8f 9337 fb2e a332
00000370: 02b7 fc33 f1c6 8034 2409 6834 f8be bd37
00000380: 9824 ae34 fb3f 8c34 f956 f534 9d21 cf37
00000390: 5914 b535 c898 0b38 ddd0 6d37 f3ee d434
000003a0: d001 de32 b54c e636 f6e3 ee37 417f 0537
000003b0: c900 6337 06c1 eb34 14b0 9830 9e2f ab34
000003c0: e5c6 c333 b082 0735 64f6 0038 7cf0 5c34
000003d0: 2a06 bc37 95d9 2735 8c33 e635 656a 1232
000003e0: 873f 1835 50f3 982f ec19 9c37 9d3d 0834
000003f0: 690c 2437 0ad2 4fb1 34cf 2032 b5b9 4e37
9.660666e-06 9.816576e-09 4.235722e-08 1.21565445e-05 2.02359e-07 4.693776e-06 4.591545e-07 2.5417208e-05
1.2388911e-06 3.1470336e-07 4.646979e-06 4.6162833e-07 1.0911857e-05 1.26031355e-05 6.7652118e-06 2.686395e-07
3.079796e-06 0.0014052059 4.0128245e-05 3.991341e-07 3.02254e-06 3.4704146e-05 5.978012e-07 2.2624366e-05
6.2946526e-07 2.365311e-05 6.0879387e-07 2.6714304e-06 1.1878602e-07 3.5541255e-08 6.7336394e-08 1.3001369e-07
1.2449327e-05 6.6942887e-09 2.4941843e-07 4.0119244e-07 3.6294745e-07 1.270598e-07 9.9728766e-08 1.5934314e-05
4.3808886e-05 3.3978406e-08 4.6984125e-05 1.1475336e-05 2.6883004e-07 3.5083756e-06 8.368722e-06 1.5496229e-05
7.770181e-06 2.740906e-07 1.7347085e-05 1.6017873e-08 8.592472e-08 3.0292207e-07 2.6390214e-07 3.0097048e-05
4.046824e-07 3.0244806e-07 5.3907974e-07 2.6826285e-05 2.0910397e-06 4.2561554e-05 1.4446662e-05 3.909699e-07
2.1811095e-08 1.1121884e-05 2.4990159e-05 7.0385804e-06 2.1978942e-05 5.502995e-07 9.380993e-10 3.6823553e-07
9.509687e-08 6.316882e-07 3.4033877e-05 2.4069035e-07 1.9829082e-05 7.3152756e-07 2.7818153e-06 8.201507e-09
6.6835094e-07 2.9655717e-10 2.7742266e-05 9.850919e-08 1.2157302e-05 1.1839719e-08 6.983236e-08 1.3719006e-05
-1.6707312e-06 -4.530218e-05 4.6468728e-07 -2.0125677e-05 2.0016305e-06 3.5840122e-07 -4.471204e-05 5.313996e-07
1.3848839e-05 -0.00012165842 -1.3985409e-05 2.987869e-07 -2.4527932e-05 0.0017835669 -0.00014806632 5.057357e-07
-2.8734341e-05 -0.00019856046 6.9092005e-07 -9.7550386e-05 6.041632e-07 -0.00013211874 6.813752e-07 3.3796193e-06
2.020191e-07 2.1578952e-08 1.2470127e-07 1.4261043e-07 -8.224528e-05 1.4656788e-08 3.0740347e-07 3.5742863e-07
4.1056862e-07 2.0459505e-07 1.6669223e-07 -0.0001512534 -6.967548e-05 6.2787954e-08 5.956901e-05 6.017876e-06
-2.637489e-06 1.5625076e-06 -8.077749e-05 -0.00014941939 -6.849751e-05 2.7659362e-07 -0.00012478007 2.016827e-08
1.5474649e-07 3.2820645e-07 2.891691e-07 -3.765925e-05 4.440808e-07 -3.064383e-06 -4.1156795e-06 -0.00013950605
2.5804943e-06 -9.618724e-05 -9.372599e-05 -2.415569e-06 2.7463182e-08 1.4097694e-05 -0.00019589766 -6.79307e-05
2.7895587e-05 6.020536e-07 1.1268844e-09 -3.6793508e-06 -6.346072e-07 6.864472e-07 -0.00014858975 2.800909e-07
-0.00019138778 8.51954e-07 3.5046169e-06 9.825765e-09 7.7228816e-07 3.4146322e-10 3.686394e-05 1.5271159e-07
6.044801e-06 1.037048e-08 5.3090645e-08 7.556644e-06 1.9230454e-07 5.306011e-06 3.6369863e-07 1.8112853e-05
1.4582812e-06 2.6341542e-07 5.2570663e-06 3.9423574e-07 6.7187966e-06 1.42239105e-05 5.227838e-06 2.2231161e-07
3.3174e-06 0.0008648156 3.4116892e-05 2.510238e-07 3.4187342e-06 3.279696e-05 5.0643615e-07 1.9945233e-05
5.0562363e-07 2.2201517e-05 5.002347e-07 1.6542883e-06 1.5929552e-07 4.1086782e-08 9.415059e-08 1.06836836e-07
1.4263208e-05 7.967503e-09 2.2631264e-07 3.3365362e-07 3.1367006e-07 1.6499153e-07 1.3174035e-07 1.793077e-05
3.293837e-05 4.771434e-08 2.8980396e-05 7.491376e-06 2.3548864e-07 2.2218742e-06 9.460853e-06 1.7516439e-05
8.637841e-06 2.3770019e-07 1.7590637e-05 1.8997062e-08 1.17679534e-07 2.3986607e-07 2.1610009e-07 2.2619482e-05
3.243665e-07 2.6123584e-07 4.5698087e-07 2.4691975e-05 1.3491473e-06 3.328247e-05 1.4174931e-05 3.9661936e-07
2.5845026e-08 6.863464e-06 2.8477963e-05 7.957046e-06 1.3530437e-05 4.3912604e-07 1.11095e-09 3.1885878e-07
9.116574e-08 5.0481594e-07 3.0747047e-05 2.0576584e-07 2.2414217e-05 6.252897e-07 1.7151337e-06 8.52251e-09
5.6716857e-07 2.7821523e-10 1.860872e-05 1.2688402e-07 9.778051e-06 -3.0241858e-09 9.360338e-09 1.2321795e-05

fc3.bias f4 [10]
00000000: 92bd 3cbc 4e55 f13d d3d9 b0bb d381 ba3c
00000010: 9ab0 cfbc f9b5 cbbd 5b89 4fbc c906 373d
00000020: 8a81 c1bc 25e8 edbb
-0.011519806 0.11783849 -0.0053970604 0.022766983 -0.025352765 -0.09946818 -0.012667025 0.044684205
-0.02362134 -0.00726034
