trained/lenet_mono_best0.9868.pt (torch, 250600 bytes, 10 tensors)

conv1.weight f4 [6, 1, 5, 5]
000000 bd a7 f8 bd 4a c5 6a bb 69 22 71 3e 83 56 c4 bc
       -0.121413685 -0.003582316 0.23548283 -0.023967033
000010 d9 6b 5d 3e 30 ef a9 3d 89 49 1e 3e 32 01 0f 3e
       0.21623172 0.082975745 0.15457739 0.139653
000020 26 e3 81 3d d3 ce 0c be 05 59 fe bd d0 37 2a 3e
       0.06342153 -0.13750772 -0.12419323 0.16622853
000030 65 1a 1e 3e 89 73 fc 3c f7 2e 16 be 6f 50 ee 3d
       0.15439756 0.03081681 -0.14666353 0.11636435
000040 b6 a3 85 3e 12 5f 37 3e ac c0 e6 bd 7e de 5f 3d
       0.26101464 0.1790736 -0.11267218 0.054655544
000050 25 c8 5a 3e d8 12 0c 3e dd 06 e2 b9 b0 d7 8a 3e
       0.21365412 0.13679063 -0.00043111193 0.27117682
000060 ee 7b 40 3e e0 4a 36 bd a1 47 f2 3d 07 f9 0c be
       0.18797275 -0.044505 0.118300684 -0.13766871
000070 f9 5c 30 be 84 9e db bc 03 e0 b7 3e 52 53 cc 3d
       -0.17222966 -0.026808985 0.35913095 0.099768296
000080 9f d3 17 be aa 2d a8 bd c2 b3 da be c9 35 6d 3d
       -0.14826821 -0.08211835 -0.4271527 0.05791262
000090 98 83 bf 3e 99 bb 9c 3d 9e 1a e5 bb 7a 7e a4 be
       0.37405086 0.07652969 -0.0069916984 -0.32127744
0000a0 68 d0 9b be 61 ec ee 3c cc 8b 41 3e a2 bf 4a 3e
       -0.3043244 0.029165449 0.18900985 0.19799665
0000b0 8c 24 bc 3c 7a 8b af be 91 e8 31 3b 18 07 3b 3e
       0.022966646 -0.342861 0.0027146677 0.18264425
0000c0 5a e8 1d 3e 3c 81 56 3d fd 19 9b bc d6 2c 16 3e
       0.15420666 0.05236934 -0.01893329 0.14665541
0000d0 e7 de 3c be a7 d5 d0 bd d0 6c 60 be b0 f7 0f be
       -0.18444405 -0.10197001 -0.21916509 -0.14059329
0000e0 eb ae 0c be 08 df 69 be 44 de 91 bd 4a 5a 27 be
       -0.13738601 -0.22838986 -0.07122472 -0.16343036
0000f0 06 bc 2a 3e 5c 5b 50 bd b0 af c8 bd 18 f4 67 3e
       0.16673288 -0.050868377 -0.09799135 0.22651708
000100 25 84 84 3d 7c ed 9b 3e 2e e2 e7 3d 89 47 ff 3c
       0.06470517 0.30454624 0.11322437 0.03116204
000110 42 43 a6 3e a3 85 8a 3d e1 04 fe 3d db a4 54 3e
       0.3247319 0.067637704 0.12403274 0.20766012
000120 bd 1d 5a bd 23 d8 00 bd cc 98 c4 3d 1c 72 39 3e
       -0.053251017 -0.031456124 0.09599456 0.18109936
000130 06 19 a4 3e 95 83 b0 3e da 3e c0 bd 8d 02 f0 bd
       0.3205034 0.3447539 -0.09386988 -0.117192365
000140 35 d6 80 3e 57 f2 a1 3e 6d 3f 34 3c e9 ab 86 be
       0.25163427 0.31630203 0.01100145 -0.26303032
000150 5d 7a 50 be 07 9a cb 3c 88 62 09 3e cb 56 79 bc
       -0.20359178 0.02485372 0.13416493 -0.015218447
000160 87 62 de bd 0d e3 ae be c2 3a 74 3d 33 59 18 3e
       -0.10858636 -0.341576 0.05962635 0.14877777
000170 4a 80 93 be 0f cc 00 be 27 37 88 be 86 b0 d2 3d
       -0.28808814 -0.12577842 -0.26604578 0.102875754
000180 06 67 78 bd 5b 35 1b be 91 82 02 bb e2 06 75 be
       -0.060645126 -0.15157072 -0.001991425 -0.23928407
000190 d7 40 ca 3e 8d 0e e3 3e 5b 52 46 3e 97 1a ae 3d
       0.39502594 0.4434704 0.19367354 0.08501165
0001a0 c4 9a f5 bd 3c bc a4 be c7 fa bc be 7f ad a6 be
       -0.1199241 -0.3217486 -0.36910078 -0.32554242
0001b0 18 03 13 b9 35 d3 38 be f0 00 c3 be fc 2e 05 bf
       -0.00014020165 -0.18049319 -0.38086653 -0.5202482
0001c0 13 f0 8c be 1d d7 3c be 20 8e 61 bc 7d bc 96 bd
       -0.27526912 -0.18441434 -0.013766795 -0.0736017
0001d0 4f 5b 8e 3e db f6 78 3d c4 2d 7a 3d 6d f4 20 bd
       0.27804038 0.060782295 0.0610788 -0.039295603
0001e0 b1 e6 87 3e f3 16 28 3e 2f 78 9e 3e 6e 59 b5 3c
       0.2654319 0.16415004 0.30951068 0.02213737
0001f0 ff b6 a2 3e e0 67 83 3e 9b 35 1f 3d 46 af 53 be
       0.3178024 0.25665188 0.03886948 -0.2067233
000200 b0 f0 b5 3b 61 0b a8 be 0e 6a 90 3d f0 5e f9 bd
       0.005552374 -0.3282118 0.07051478 -0.12176311
000210 17 21 63 be b2 e2 23 be 7d fe 8b be 17 04 a1 be
       -0.22180592 -0.16004446 -0.27342597 -0.31448433
000220 04 0e 6e be 39 a9 7f be 40 9e 5d be a5 5e 2b 3d
       -0.23247534 -0.24966897 -0.21642399 0.041838307
000230 01 68 7f bc 71 ef 8f be c2 fb 40 be 7f df 00 3b
       -0.015588761 -0.28112367 -0.18846038 0.0019664464
000240 c3 e7 f5 bd a4 df c6 be 94 fb 14 be d5 e5 f9 bd
       -0.12007096 -0.388425 -0.14549094 -0.1220204
000250 5b 6c d4 3d ef 15 a5 bd
       0.1037223 -0.08060824

conv1.bias f4 [6]
000000 11 09 3c be 8c f1 4c 3e b2 99 0c 3e a1 f9 7e 3d
       -0.18362834 0.20014018 0.13730505 0.062249783
000010 2e 97 cc bd 33 13 f0 3c
       -0.09989773 0.02930603

conv2.weight f4 [16, 6, 5, 5]
000000 02 b6 41 bd b3 a4 01 be 82 64 66 bd 47 35 df 3d
       -0.047292717 -0.12660484 -0.056248195 0.10898834
000010 d9 f0 6d 3d 44 af 44 3a 94 3d ac bc e7 13 02 3d
       0.05809102 0.0007502923 -0.021025456 0.03175726
000020 b6 c5 9c bd 92 7c 65 3d 6b ef 77 bc 34 6e c0 3d
       -0.07654898 0.056027003 -0.015132765 0.093960196
000030 3c eb 10 bd cc fc ad bd 65 50 0a be 95 ca 2f bd
       -0.035380587 -0.08495483 -0.1350723 -0.042917807
000040 01 8d 3e 3d 1b 1c 78 bd b9 3d 2d be d7 b1 dd bd
       0.04652119 -0.06057368 -0.16918077 -0.10824936
000050 9d 4b 5a 3d d7 ff 7a bd 5d 92 a6 3b 1e 80 88 3d
       0.053294767 -0.061279144 0.005083366 0.066650614
000060 a4 6c a2 bd 16 92 d6 bc de ae 8e be 3d f8 1d 3e
       -0.07930878 -0.026192706 -0.27867788 0.15426727
000070 87 07 61 3e c0 32 4b 3e 14 02 46 3e e9 62 bb 3c
       0.21975528 0.19843578 0.1933673 0.022874312
000080 df 01 ce bd a0 65 a3 3d e8 80 a1 3e c4 8d 90 3d
       -0.10058951 0.07978368 0.3154366 0.0705829
000090 92 c9 00 3e 76 7a 20 3e ab 75 92 bc 43 f9 61 3e
       0.12576893 0.15671715 -0.017878374 0.22067742
0000a0 6e 64 44 be 28 0c 8c 3d 3f 2a c9 3e 77 0a 3f 3e
       -0.19178936 0.06838256 0.39290044 0.18656336
0000b0 97 50 14 be f5 23 28 3e 7b 5d fb bd 6c 4f 4b bd
       -0.14483868 0.16419967 -0.12273689 -0.04963629
0000c0 a2 c9 60 3e d7 42 a9 3d 1b f9 06 be 99 a3 1d bd
       0.21951917 0.08264702 -0.13180964 -0.038486097
0000d0 1e 7c 50 bd ec 72 03 3d 06 7c ec bd 47 01 0c 3d
       -0.050899617 0.03209202 -0.11547093 0.034180906
0000e0 1a 1a 8c 3d de b4 31 bd ba eb 0d be 63 a4 ca bc
       0.06840916 -0.04338538 -0.13859454 -0.024736589
0000f0 18 a6 79 bd 5e 45 06 bc 1d ee e1 bd bf 29 b0 bd
       -0.060949415 -0.008195249 -0.11031745 -0.086017124
000100 f9 92 52 bd f5 58 f1 bc 36 9a 06 be 28 a1 dd bd
       -0.051409695 -0.029461363 -0.13144764 -0.10821754
000110 97 29 d9 3d e3 ec 72 bc 40 81 f3 3d e0 a9 66 3d
       0.10603636 -0.014826986 0.11889887 0.05631435
000120 33 7f 2b 3d 92 35 03 be 1a f3 4d 3d 9a 5d 0d 3e
       0.041869354 -0.12813404 0.050280668 0.13805237
000130 02 e8 0e be 21 61 d5 bd e9 da 5d 3d f9 42 db 3d
       -0.13955691 -0.104189165 0.054163847 0.107061334
000140 c7 56 29 3c f3 ec 50 3d 40 7a 8c 3d 4e e1 73 bc
       0.010335631 0.051007222 0.06859255 -0.01488526
000150 d3 81 33 3d e3 d8 d4 bd 90 ca a5 bd 2b 8c 04 3e
       0.043824982 -0.1039293 -0.08095276 0.12944095
000160 05 0c 54 bd 48 79 92 bd f0 33 88 3d 85 c6 b4 bd
       -0.051769275 -0.07152039 0.06650531 -0.08826927
000170 43 94 3c bd 2f 76 de bc 2b 77 2b be 82 3a ea 3d
       -0.04603983 -0.027155964 -0.16744678 0.11436941
000180 e0 6c 38 bc 14 32 ad bc 6c 60 90 bd 45 b4 b4 bd
       -0.011256427 -0.021142043 -0.07049641 -0.08823446
000190 cd 17 5a bd 80 77 19 bc ff 05 24 be c2 c7 65 bd
       -0.053245354 -0.00936687 -0.16017912 -0.056098707
0001a0 69 4a 20 3e ab 11 dc 3d 0d df e2 bc 68 4b b8 bd
       0.15653385 0.107455574 -0.02769425 -0.089987576
0001b0 1e 60 2d be 11 15 db 3d e2 5d 6d 3d 29 e3 ca bd
       -0.16931197 0.106973775 0.05795086 -0.099066086
0001c0 a1 2c 0f bd f2 6a d7 3d f3 a5 20 3e a7 af 82 3d
       -0.03495467 0.10518445 0.15688305 0.06381159
0001d0 00 26 88 bd e6 94 f9 bd 46 f1 87 bb ad 79 6f 3d
       -0.06647873 -0.12186603 -0.004148635 0.05846565
0001e0 2e 21 51 3d 9c b4 1b 3d 26 ec 19 bd 41 7c d9 bd
       0.051057033 0.03801404 -0.037578724 -0.10619403
0001f0 75 74 02 bd 2d 50 8f 3d 55 60 31 3d 31 23 12 be
       -0.031849343 0.06997714 0.04330476 -0.14271237
000200 a9 cf c2 bd d4 11 86 3d 7d 43 a8 3c 9b 9f 0e be
       -0.09512264 0.06546369 0.020539993 -0.13928072
000210 0f f6 b1 bb 57 60 81 3d 5c df de 3c 98 7f 23 be
       -0.005430944 0.063172035 0.027206115 -0.15966642
000220 d6 ab 2d be fb cb 97 bd 1f 2e a2 bd 08 65 f2 bd
       -0.16960081 -0.07411953 -0.07918953 -0.118356764
000230 aa 34 19 be 4e da a1 bb 98 34 2e bc 05 69 a8 bc
       -0.14961496 -0.004939354 -0.0106326565 -0.02055789
000240 e5 7d b0 bd 92 a0 05 be 88 34 1f 3d be 83 73 bc
       -0.086177625 -0.13049534 0.038868457 -0.014862953
000250 16 d1 23 be 14 37 59 bd c8 2e 9a bd 11 d6 6a bc
       -0.15997729 -0.053031042 -0.07528454 -0.014333264
000260 0a b3 63 3d 90 21 bf bd 9b 18 94 bd 77 7b 11 be
       0.055590667 -0.093325734 -0.072312556 -0.14207254
000270 f1 02 b0 bc 30 2a d3 bd d0 49 17 be 55 13 91 bd
       -0.021485778 -0.10310781 -0.14774251 -0.070837654
000280 5a 12 65 bd bd 26 5e bd 58 d9 d8 bd 76 c5 12 be
       -0.055925705 -0.054236162 -0.1058833 -0.14333138
000290 c4 4d ae bc e4 c7 ad bc 4b 04 5e bc e6 0b a5 3d
       -0.021277316 -0.02121348 -0.013550828 0.0805891
0002a0 23 d3 ad 3d 7f 88 76 3c 7b d6 1a ba 78 a2 8b 3d
       0.08487537 0.015047192 -0.0005906594 0.06818098
0002b0 40 f7 a8 3d f5 95 ee 3c 9e fe 82 bd a4 c1 85 bc
       0.08250284 0.02912424 -0.063962206 -0.016327687
0002c0 c8 01 a3 bd ce 54 ec bd 6d 64 a0 bd 40 7a 06 be
       -0.07959324 -0.11539613 -0.07831655 -0.13132572
0002d0 5b 2b fe bd 80 ce 07 be a4 71 f8 bd 8a 53 62 3d
       -0.12410613 -0.13262367 -0.1213105 0.05525545
0002e0 11 1a 89 3d ee 24 b8 bd 45 c8 91 bd 2d 2f a7 3b
       0.06694425 -0.08991419 -0.071182765 0.0051020593
0002f0 68 62 1e bc 16 25 3d bc 03 12 cc 3c f3 ff 3f 3c
       -0.009667017 -0.0115444865 0.024910932 0.011718738
000300 6c 7c 8f bd c8 8b 4e bd 70 d1 1f bc 81 42 13 3d
       -0.070061535 -0.050426275 -0.009754524 0.035952095
000310 1e f1 80 bc 2c ea 19 3d 4e 70 a5 3d f8 a7 5c 38
       -0.015739974 0.03757684 0.08078061 5.260852e-05
000320 37 27 91 bc 53 e9 3f bd 8a 8c 9a 3c a0 27 04 bd
       -0.017718894 -0.046853375 0.018865842 -0.03226435
000330 6a b3 17 be 52 78 1b be 76 0f ce 3b 6d 09 cf bd
       -0.14814535 -0.15182617 0.006288464 -0.1010922
000340 71 c2 e4 bd 1d 8b 82 3c 95 ae 5c 3d b9 c6 23 3e
       -0.11169899 0.015935475 0.053877432 0.15993775
000350 b6 94 ae 3d 60 1e 60 3d ac 75 13 3e 06 78 ab 3d
       0.08524458 0.054716468 0.14400357 0.08372502
000360 80 55 ba 3d d3 95 a9 bc 56 01 c3 3d 72 87 17 3d
       0.09098339 -0.020701325 0.09521739 0.036994405
000370 30 63 63 bd 23 17 be bc 34 5c 4b 3b 81 ff 22 3d
       -0.055514514 -0.023204392 0.00310303 0.03979445
000380 49 06 9f bd e4 10 e2 39 91 d2 ed 3c a9 74 d8 bc
       -0.07764871 0.00043118664 0.02903107 -0.026422815
000390 c4 fe fc 3b 48 a4 be bc 12 99 e6 bd 4a 9b 07 be
       0.0077208 -0.023271695 -0.112596646 -0.13242832
0003a0 b9 8e b9 bd 22 06 ef bc 64 01 08 be 1b 46 60 be
       -0.09060425 -0.029177729 -0.1328178 -0.21901743
0003b0 3c 55 95 bd 46 d7 11 be 45 1f c9 bd 7b 2d c7 bd
       -0.07291648 -0.14242277 -0.09820417 -0.097254716
0003c0 b9 81 0f be d3 60 d9 bd 47 61 73 bd 23 8a 05 be
       -0.14014329 -0.10614171 -0.059418943 -0.13040976
0003d0 47 bb c0 bd 8f 90 9b 3d a2 50 c4 3d 4e 7a 5b 3d
       -0.0941072 0.07595932 0.09585692 0.053583436
0003e0 02 1b 2b 3d 6b ba 03 bc 86 05 10 be b8 8f aa 3d
       0.041773804 -0.008040051 -0.14064607 0.083281934
0003f0 bc 01 da 3d e1 da 8c 3d 75 44 03 3e cf 2a 0f 3e
       0.10644862 0.06877685 0.12819083 0.13981174

conv2.bias f4 [16]
000000 c2 82 0d 3d da 81 bf 3c c4 a4 73 bd 35 5e fe bc
       0.03454853 0.023377348 -0.059483305 -0.03105078
000010 0c 8a 9a 3b d0 dc 57 bc 95 6c 3e bd 6d 78 df bd
       0.0047161635 -0.013175204 -0.04649027 -0.10911641
000020 34 0e 95 bc d4 1e 03 3d df b7 cf bd 93 5d 1e 3d
       -0.01819525 0.032011822 -0.101424925 0.038663458
000030 ad d7 e2 bd 6e 68 e0 bd 0e e6 26 bd 0e 03 15 bc
       -0.11076293 -0.109574184 -0.04074674 -0.009094967

fc1.weight f4 [120, 400]
000000 bd 2a 0b 3d 0e a5 f3 bc d2 57 3b be c4 38 a4 bd
       0.033976305 -0.02974179 -0.1829522 -0.0801864
000010 ba 22 9f bd fc 9b c7 bd c0 d2 0b bd f8 fa 67 bd
       -0.077702954 -0.097465485 -0.034136534 -0.056635827
000020 9d 4e 0b be 8e b6 d2 bd 83 cc a9 bd 29 94 50 3c
       -0.13604207 -0.10288726 -0.08290961 0.012730637
000030 9f ee b7 bc f5 c6 8c bc 56 99 90 bc 05 8d 7d 3d
       -0.02245265 -0.017184714 -0.017651241 0.061902065
000040 6b 4d 6e bd dd df e2 bc 2f e7 46 3b 35 63 bb bc
       -0.0581793 -0.027694637 0.0030350199 -0.022874454
000050 0c ce ab 3c b9 f7 39 ba b3 8c a2 bd af fc 2f bb
       0.020972274 -0.00070941035 -0.079369925 -0.0026853492
000060 3b 0f f1 3b 6f 35 c3 ba e4 3c dc 3b 5e 00 bc ba
       0.007356552 -0.0014893244 0.006721126 -0.0014343371
000070 ba a7 05 3d 12 41 ef 3d 04 7b 29 be 09 1a f0 bd
       0.03263066 0.11682333 -0.16550833 -0.11723716
000080 10 c4 d2 3c 50 11 35 bc ca ba af bc 6a 59 2a bb
       0.025728256 -0.011051491 -0.021451373 -0.0025993236
000090 d4 81 ce 3c c9 ea b6 bd e6 a6 d1 bd 9e e3 47 bd
       0.025208391 -0.089315005 -0.102369115 -0.048801057
0000a0 43 8f c5 3a 58 e1 e7 3c 06 e6 99 3d 21 75 08 3d
       0.0015072603 0.028305694 0.075145766 0.033314828
0000b0 43 14 85 bb 38 ca 26 3d 72 d1 f8 bc ef 44 a9 3c
       -0.0040612533 0.040720195 -0.030373309 0.020662753
0000c0 95 35 dd bc ed c1 22 be d2 8e 8e 3c fe a5 89 3d
       -0.027003089 -0.1589429 0.017402086 0.067211136
0000d0 c0 11 54 3b ca c5 87 ba 78 64 88 3d 55 60 34 bd
       0.0032359213 -0.0010358628 0.06659788 -0.044037182
0000e0 78 c8 18 bc f3 bf 96 bd 33 fa 81 bc 54 26 49 bd
       -0.009325139 -0.0736083 -0.015866375 -0.04910882
0000f0 a0 94 35 bd e6 dc b2 bd ba b0 48 be f0 eb 83 bb
       -0.044331193 -0.08733539 -0.19598666 -0.0040259287
000100 59 4f 08 bd db 75 5b 3d 50 01 a5 3d 15 c0 b5 bb
       -0.033278797 0.053579193 0.08056891 -0.0055465796
000110 6f 8a 78 bb c4 e3 97 bd 4d f4 4f 3c 53 e4 2c 3d
       -0.003792431 -0.0741649 0.012692523 0.042209934
000120 70 33 ab bc c9 15 88 3c 7e 7b 6c bd 8e 5e 6a 3d
       -0.02089855 0.01661195 -0.05773496 0.05721908
000130 a0 4c d8 3d 92 2e e1 bb ee 14 83 bd ba ad f5 bb
       0.1056149 -0.0068720067 -0.064004764 -0.0074975165
000140 37 49 21 3d e9 ae ad 3d 42 8a 8b 3c 2b 5f 42 3d
       0.039376464 0.08480627 0.0170337 0.04745404
000150 4f 0a 5a bd e6 50 b7 bd 00 79 21 3d 7f d1 32 bb
       -0.053232487 -0.08950977 0.039422035 -0.0027285514
000160 70 ba 2d 3d f9 2d ff bc 0a 5a 87 bc d5 49 8f 3c
       0.04241413 -0.031149851 -0.016522426 0.01749126
000170 67 39 2e bd 6e 4d c7 bd 97 5b 87 bd 9e ce ae bd
       -0.042535212 -0.097315654 -0.06609266 -0.08535503
000180 21 8c 01 3e 01 3b a5 3d 40 8e a2 3d 30 13 94 bd
       0.12651111 0.08067895 0.07937288 -0.07230222
000190 d7 a5 d4 bd d8 f0 88 3d 55 d5 05 3d 86 49 e2 bc
       -0.10383194 0.06686562 0.032674152 -0.02762295
0001a0 8a 89 07 be 19 8f b4 3d dc 0c 2b 3e b0 57 d1 3d
       -0.1323606 0.08816356 0.16704124 0.10221803
0001b0 f0 85 ca 3d 50 64 e3 3d 40 fe 38 bd 73 60 4c bd
       0.09888828 0.111031175 -0.045164347 -0.04989667
0001c0 57 07 24 3d 38 97 55 3d 84 53 c1 bb 9e 93 de bc
       0.040046062 0.052146167 -0.0058998484 -0.027169999
0001d0 72 16 10 3b 3e 46 04 be b0 71 fc bc 10 7d 80 3b
       0.0021986035 -0.1291742 -0.03081593 0.0039211586
0001e0 d8 61 95 bd 3d 39 2d 3d 68 ff 52 3d f4 a0 4d bc
       -0.07294053 0.042290915 0.051513106 -0.012550581
0001f0 04 b3 c2 3d 38 38 f1 3c a9 b0 be bd 3a 7c 17 be
       0.09506801 0.029445753 -0.09311039 -0.14793482
000200 70 d5 b6 3d bd f0 c5 3c c4 f4 a7 bd 2f 80 41 bd
       0.08927429 0.024162645 -0.08200982 -0.047241386
000210 91 70 3f bd 60 e5 77 bd 2f d5 e4 3d de 82 8c bc
       -0.04673821 -0.060521483 0.11173474 -0.017152246
000220 e1 c6 c5 3d 51 ee 87 3d cc ac 94 bd 34 ee 0f bd
       0.09657074 0.06637252 -0.07259521 -0.035139278
000230 6e bf 24 bd 46 f4 0d 3b 46 b9 f9 bd a5 01 a4 3c
       -0.040221624 0.002166049 -0.12193541 0.020020315
000240 c4 1f a9 3d 07 90 9a 3d 51 04 38 bc 4e bf 07 3c
       0.08258012 0.07547002 -0.011231498 0.008285357
000250 1d 69 9a 3c 9d b9 10 3c 7a 10 58 be c4 ab 79 bd
       0.01884895 0.008833316 -0.21100035 -0.060954824
000260 11 70 36 bd 03 f5 cd 3d b0 f6 13 be 63 44 0b bd
       -0.04454047 0.10056498 -0.14449573 -0.034000766
000270 a7 f7 82 3d 07 69 aa bb 43 18 8f 3d 29 2b be bd
       0.06394892 -0.0052005085 0.069870494 -0.09285576
000280 c5 ee 86 3d 90 d6 8d bd 04 67 73 3d 40 f8 cd 3d
       0.065885104 -0.0692569 0.059424415 0.100571156
000290 79 35 a4 3d bd 49 b9 3d 44 d8 e3 bd 73 68 5e 3d
       0.080180116 0.090472676 -0.11125234 0.05429883
0002a0 f1 9d 7a bd a7 c7 5c 3d bb e6 91 bd 20 38 13 bd
       -0.06118578 0.05390134 -0.071240865 -0.035942197
0002b0 1f 9a 37 3d 20 f1 7d bd 81 55 0b 3d bc 77 2d bc
       0.044824716 -0.061997533 0.03401709 -0.010587629
0002c0 b8 16 05 be fb 82 2f 3e 29 56 2b 3e 91 a9 ba 3d
       -0.12996948 0.17139809 0.16732086 0.091143735
0002d0 a0 1e ca 3d 9b 20 78 bd 8e 55 e8 3a 85 5f f7 3d
       0.098691225 -0.06057797 0.0017725693 0.12078766
0002e0 51 6d dc 3d cc f5 7d 3c 68 72 de 3c d3 6d d0 3d
       0.10763038 0.015500497 0.027154163 0.10177197
0002f0 33 a1 c9 bc d8 f3 c3 bb ab 57 15 be 31 fc a5 bc
       -0.024612999 -0.005979996 -0.14584224 -0.020261856
000300 d2 17 be bc fa 8e e0 bd 1c f9 3b be 66 41 a1 3c
       -0.023204718 -0.109647706 -0.18356746 0.019684505
000310 30 70 5d 3d 7b b4 d2 bc 6b ba 67 3d e9 3c b2 bd
       0.05406207 -0.025720825 0.056574266 -0.08703024
000320 09 53 98 3a 2b 06 a7 bd 8b dc c2 3c d2 d1 20 3d
       0.0011621426 -0.08155473 0.023786804 0.0392626
000330 c6 ca d4 bd bd 48 0b bc e2 19 6b bd ec 91 ff 3d
       -0.103902385 -0.008501229 -0.05739773 0.12479004
000340 bf 1e a2 3d 54 2e e6 bc 88 d4 f2 bc 38 43 92 bd
       0.079160206 -0.028098263 -0.029642358 -0.07141727
000350 a2 e4 f7 3d 73 fa eb bc 12 4e d1 3c 0e 16 82 bd
       0.12104155 -0.028805947 0.025549922 -0.06351863
000360 72 9e b0 bc 96 00 4e 3d 48 47 06 bd 70 91 06 3b
       -0.021559928 0.050293528 -0.032782823 0.0020533465
000370 bc cb 8d 3d 62 e3 2a 3d da d1 b7 3b f8 51 62 ba
       0.06923625 0.041720755 0.005609733 -0.000863343
000380 4c a1 85 bb 07 84 53 3e 28 ce 27 3e 2b d2 96 3c
       -0.004078066 0.20655833 0.16387236 0.018410763
000390 bb b4 4b bd 90 fa 4a bc 08 97 85 3d 5c ed 5e bd
       -0.049732905 -0.01238884 0.065229475 -0.054425582
0003a0 18 f3 f2 3b 02 66 b8 bc fa 7b 80 3d 4a d2 d4 bc
       0.007414233 -0.022509579 0.06273647 -0.02597918
0003b0 bb 7f b3 bd d3 f5 2c bd 39 be 2a 3c 55 16 bd 3d
       -0.08764597 -0.042226624 0.010421329 0.09232775
0003c0 07 78 a5 3c ce 3f f9 3d ab f8 a5 3d c9 de cb 3b
       0.020198835 0.12170373 0.0810407 0.0062216264
0003d0 96 89 50 3b 9b 04 d8 bc 6e 85 ea bd bc fc 1d be
       0.003182029 -0.026369384 -0.11451231 -0.15428442
0003e0 77 05 fb bd 87 35 c1 bd 1c 04 2a bd 7e c1 00 be
       -0.12256902 -0.09434038 -0.041507825 -0.12573811
0003f0 08 c5 78 bd fc 44 43 bd 88 0a 3e be f8 53 76 3d
       -0.06073478 -0.04767321 -0.18558705 0.060138673

fc1.bias f4 [120]
000000 40 41 52 b9 ce af 39 bd 7e 09 c1 bc 7a ad 75 bd
       -0.00020051468 -0.045333676 -0.023564097 -0.059979893
000010 65 fe b0 bd 84 e2 01 bb 5c af e7 bc 37 29 9e bd
       -0.08642272 -0.0019818852 -0.02828186 -0.07722705
000020 99 a4 04 3d b9 44 dc 3d 19 37 15 3d 75 1a 30 3c
       0.032383535 0.10755295 0.0364295 0.010748495
000030 63 0d fd 3c 3a 48 c9 bc 22 48 40 3c 41 1e 0e bd
       0.030890172 -0.024570573 0.011735948 -0.03469682
000040 d5 00 c2 bd a8 75 50 bd 87 cd 10 3d 87 9e 27 bc
       -0.09472815 -0.050893456 0.035352256 -0.010230667
000050 55 ad cf bd 2e ea 41 bd 0d 10 4f bd 59 d9 38 be
       -0.10140482 -0.04734247 -0.050552417 -0.18051662
000060 f1 c1 f3 3b 18 3e 58 bd c8 8c 54 bd 33 b9 23 3c
       0.007438891 -0.052793592 -0.051892072 0.009992885
000070 70 c8 67 bd dc 8a 4d 3d 62 6c ef 3b 28 b6 f2 bb
       -0.056587636 0.050181255 0.0073066214 -0.0074069686
000080 cb c1 c8 bb 95 0b bf bb 2e e5 15 bd ca c0 c0 bd
       -0.0061266175 -0.005830238 -0.036595516 -0.094117716
000090 a7 35 1f bd 9b 1a 0c 3d f2 c4 84 3c 17 45 9c bc
       -0.038869526 0.03420506 0.016207192 -0.019075913
0000a0 cf 8c 64 bd 64 48 ed 3b 88 b2 dd bd 65 1f 07 bd
       -0.055798348 0.0072412957 -0.10825068 -0.032988925
0000b0 e4 ce 7f bc 07 63 b5 3b b6 da 51 bd a0 7a 28 3c
       -0.015613291 0.0055354866 -0.05123397 0.010283142
0000c0 52 8a 76 bd 65 69 1a bc 24 9b 16 be 18 8a 79 3c
       -0.060190506 -0.009424542 -0.14707619 0.015230678
0000d0 30 a7 ca 3d 5c e8 0a be b2 1c e0 bd e7 03 1a be
       0.0989517 -0.135652 -0.10942973 -0.15040551
0000e0 48 17 50 bd d4 75 da bb 4a d0 b0 bc a7 60 4e 3c
       -0.050803453 -0.0066668782 -0.021583695 0.012596286
0000f0 aa d4 4f 3d 17 34 a0 bd 89 71 8d 3c 9a d4 3d 3d
       0.05073992 -0.07822435 0.017266052 0.04634533
000100 77 3a e1 bd b2 fe 57 bd 1e cf fb bc 7c 5d 32 bd
       -0.109974794 -0.05273313 -0.03073841 -0.043546185
000110 7c c5 2b bd 4a 6c 31 bd e7 02 5a b9 61 41 f7 bd
       -0.041936383 -0.043316163 -0.00020791181 -0.12073017
000120 99 49 8b bc 46 cc e2 3c c2 74 1a 3c 29 7e a5 bc
       -0.017002868 0.027685296 0.009427251 -0.02020176
000130 93 1d 02 3b 89 78 b9 bd 7d 94 a0 3c a5 81 59 bd
       0.0019854053 -0.090561934 0.019602055 -0.053102154
000140 0e d5 82 3c 63 25 93 bd 1a 6e 65 bd c0 f6 b4 bd
       0.015970733 -0.07184865 -0.056013204 -0.08836126
000150 7a a6 73 bd b1 d6 ab 3d 59 81 21 bb f2 10 53 bd
       -0.059484936 0.083905585 -0.0024643748 -0.051529832
000160 b2 1a ab 3c 32 ff 1e bd 42 15 df bb ae d0 dc bd
       0.020886753 -0.038817592 -0.006807954 -0.1078199
000170 5a 81 e0 bc 42 7d 2a bd c5 00 dd bc d4 78 96 3b
       -0.02740543 -0.04162336 -0.026977906 0.0045920406
000180 86 5f 3e bd dc c0 32 3c 20 74 3a 3d 77 52 e4 3c
       -0.046477817 0.010910239 0.0455209 0.027871354
000190 c6 8f 7f 3d ba 90 21 be 2a ed d5 bd 9d 11 e2 3c
       0.062392972 -0.15777865 -0.10445626 0.02759629
0001a0 62 a5 bb bd 70 6e 14 bd 91 67 e3 bc 03 22 3a 3d
       -0.09162404 -0.036238134 -0.027759345 0.045442592
0001b0 bd e4 df 3c 6e ce e6 3d 6a 31 a2 3d 64 26 7b bc
       0.02733075 0.11269842 0.07919581 -0.015328977
0001c0 25 78 a1 3d 0b e2 da bd fd c2 40 bb 22 2a 30 bd
       0.07884244 -0.106876455 -0.0029413097 -0.04300893
0001d0 51 15 26 bd ec 2b 32 bc 5f db 00 3c 07 ea 0c be
       -0.040547673 -0.01087473 0.007864802 -0.1376115

fc2.weight f4 [84, 120]
000000 b2 39 a8 bd 89 60 11 3d cc 72 ca 3b 83 90 87 bd
       -0.082141295 0.035492454 0.0061782356 -0.0661936
000010 90 e8 09 bd b9 ec 87 3c 7f 72 c4 bd d2 fd 02 bd
       -0.033669055 0.01659237 -0.09592151 -0.031980343
000020 80 0f 17 3e 46 23 24 bd 80 9b ea 3a 54 89 c6 be
       0.14752007 -0.040072702 0.0017899126 -0.38776648
000030 a6 11 e7 bd b2 a8 e8 bd 9b f5 9c 3d de 8d 86 3d
       -0.11282663 -0.11360301 0.07664033 0.06570028
000040 8a 98 0b 3e aa ea 8d bd c6 95 36 bd 8f 45 03 3e
       0.13632408 -0.06929524 -0.04457643 0.12819503
000050 d7 c0 02 be a5 b0 a6 bd dd 35 5b bd 28 ed b8 bd
       -0.12768875 -0.08139161 -0.053518165 -0.09029609
000060 31 01 04 3d a6 ff 1c bc 30 7f eb 3c 73 c1 09 bd
       0.0322277 -0.009582436 0.028747171 -0.033631753
000070 c7 ec 31 bc 93 c7 84 3c e4 d4 bd bc 98 6e e2 bd
       -0.010859675 0.016208446 -0.023172803 -0.1105625
000080 d9 94 1e bd 81 d1 48 3d a6 c4 ce 3d 7b 8b 6c bc
       -0.03871617 0.049027923 0.100961015 -0.014437552
000090 70 43 91 bc 5d 04 f5 bd d6 b6 8e 3c f1 fc 66 3e
       -0.017732352 -0.11963723 0.017421167 0.22557427
0000a0 d8 87 49 3e bb 60 f0 bd 12 06 c0 3c 41 07 20 be
       0.19680727 -0.117372 0.023440395 -0.15627767
0000b0 a2 30 38 bd 98 14 dd 3d a1 da ae bd 01 01 0f 3e
       -0.044968255 0.107949436 -0.08537794 0.13965227
0000c0 c0 ad a4 bc e0 a1 fe bc e2 1d 5f 3e b0 58 14 3c
       -0.020102382 -0.031083047 0.21788743 0.009054348
0000d0 fa 99 02 be c7 c3 b1 3d fb 7e 1d bd bf aa dd bd
       -0.1275405 0.0867992 -0.038451176 -0.10823583
0000e0 6b e1 15 3e f5 40 6c bd f4 86 f0 3d 12 3d e1 3d
       0.14636771 -0.057679135 0.1174449 0.10997976
0000f0 ce 44 37 be b2 8c 49 3e 2d 75 af 3c 0a f4 28 be
       -0.1789734 0.19682577 0.021418178 -0.16499344
000100 80 76 e9 3c e0 2a 44 bd 23 b8 5d be 85 5c 1d bc
       0.028498888 -0.04789245 -0.21652274 -0.009604578
000110 3c 9c a7 3d 78 74 3d 3d e1 31 70 be 06 3e b1 3e
       0.08184096 0.04625365 -0.23456527 0.34617633
000120 d1 df 67 be 1b 08 38 bc 2a be 6b 3d 09 a5 da bd
       -0.22643973 -0.011232401 0.0575544 -0.10676009
000130 2d 2a 60 bd 09 44 1d 3e 5b 3b 98 be 65 82 bb bd
       -0.054727722 0.15357985 -0.29732785 -0.0915573
000140 33 ea b4 bc 2a 9e bc 3d 2e 5b 25 be f4 e9 b1 bd
       -0.022084331 0.09209855 -0.16148064 -0.08687201
000150 f9 4d 7a be 7b e5 ca 3d 1a ce 14 3c 8b 8d 99 3d
       -0.24443807 0.09907051 0.009082342 0.074977
000160 42 dd 0a be ae e2 0d be b8 5d 45 be 6d 5e 7c bd
       -0.13560966 -0.13856003 -0.19274032 -0.06161349
000170 02 ca 34 3d 60 5a 77 bd 5f 52 e9 bd 0d bb 20 3e
       0.044137962 -0.060388923 -0.11392664 0.15696354
000180 d6 96 5c bd 6a 55 14 be d7 70 c9 be ed 6e d1 bd
       -0.053854786 -0.14485708 -0.39343902 -0.102262355
000190 3f 9b d0 3d 05 af ac 3d 52 a6 8b be 60 54 39 bd
       0.10185861 0.0843182 -0.2727533 -0.045246482
0001a0 d8 c4 b4 3c f9 dd c3 3d 72 5f d0 3d 4b 67 09 3d
       0.022066519 0.09563822 0.10174455 0.033545773
0001b0 39 6f 27 3e 6b b2 2a bc c0 14 40 3c 1d 27 25 be
       0.16351022 -0.010418515 0.011723697 -0.16128202
0001c0 88 5f a1 bb 9d e8 dd 3c 7f 70 bb 3d 11 7e 18 be
       -0.0049247183 0.027088458 0.09152316 -0.1489184
0001d0 f2 f3 26 be c9 8a 0e bd 04 4e dd 3d 2c eb 9d 3c
       -0.16303995 -0.034800325 0.10805896 0.019277178
0001e0 51 ad cc 3c 0c 9c 88 3d 4b 6b 66 3b 98 48 4b bc
       0.024984987 0.066703886 0.0035159166 -0.012407444
0001f0 91 a7 9f bd 0b 85 9a 3d d9 59 10 be 28 76 3d be
       -0.07795633 0.07544907 -0.14096774 -0.18502104
000200 55 1b 08 3e 33 71 97 bd 24 ba 52 bc 0c 82 87 be
       0.13291676 -0.07394638 -0.012861762 -0.26466405
000210 46 bd 62 3d 35 35 d4 3c 89 55 0c bd ea 21 89 bd
       0.055356286 0.025904277 -0.03426126 -0.06695922
000220 6b 14 06 be d1 5f 8c 3c 2a 9f 3d bd 65 1e a5 bb
       -0.13093726 0.017135533 -0.04629437 -0.0050390237
000230 03 88 5e 3c ec 1a b2 3c 6d 4c b6 ba 6c 30 fd bb
       0.013582232 0.021741353 -0.0013908275 -0.0077267196
000240 5f 8f 00 be 93 18 74 3d a5 ca 10 bd f0 da cf bc
       -0.12554692 0.05959375 -0.035349507 -0.025372952
000250 49 9a e3 bc 74 b3 05 3e 22 f3 0b be f2 0e b2 3d
       -0.02778353 0.13056737 -0.13666967 0.08694257
000260 94 87 07 be ac 5f 49 3e 16 55 8e bd 0d 9b 00 3e
       -0.13235313 0.19665402 -0.069498226 0.12559147
000270 82 72 bf bd bf b0 2e 3e fe 6c fd 3d ce 9c 58 be
       -0.093480125 0.17059611 0.12374304 -0.21153566
000280 43 1a d3 bd 6f a5 0c 3c b5 49 f7 3d 57 99 68 bd
       -0.103077434 0.008584364 0.120746054 -0.05678686
000290 0d 84 42 3d d8 63 be 3d ec 9c ff bd f5 c3 17 3d
       0.047489215 0.092963874 -0.12481102 0.037052114
0002a0 de 52 24 bd c6 b4 99 3d b8 a1 1b 3e 87 05 83 3b
       -0.04011809 0.07505183 0.1519841 0.0039984616
0002b0 a6 66 35 3d e2 8e af b9 16 d5 25 be 09 4d 29 3d
       0.044287346 -0.00033485057 -0.16194567 0.041333232
0002c0 ad 7f 36 3b 9d 22 e9 bb 5f cc 34 3e 68 f9 02 3c
       0.0027847097 -0.007114722 0.17656086 0.007994033
0002d0 43 b4 e0 3c 48 69 f1 bd 7d 02 6a bd 9f 95 1e bc
       0.027429705 -0.11787659 -0.05713128 -0.009679227
0002e0 0b 2c e5 3d 5f 74 93 bd 3f 07 eb 3d 51 89 3f 3e
       0.11190041 -0.071999304 0.114759915 0.18704726
0002f0 16 ae 4f 3e e3 f8 ea bd d6 fd e6 3b 6c 55 ea bc
       0.20281252 -0.114732526 0.0070493026 -0.028605185
000300 2e e9 f2 3d 73 89 e9 bc 00 19 20 bd 47 e1 31 bd
       0.11860882 -0.028507924 -0.03908634 -0.04342773
000310 ac 0d 94 bd d0 02 80 bd 67 a6 2c 3e 0b e0 ab 3d
       -0.0722917 -0.062505364 0.16860352 0.08392342
000320 af 12 73 bd 3e 26 8a bd 7d 21 20 3d 81 7d 07 3e
       -0.05934399 -0.06745575 0.039094437 0.1323147
000330 9f 6c 97 bd b9 c5 1b be 7e d8 20 3d df 73 8e bd
       -0.07393765 -0.15212144 0.039268963 -0.069556944
000340 d2 ec ac 3d 82 a5 e4 bd 38 d4 4f bd f4 b2 a3 bd
       0.084436074 -0.111643806 -0.050739497 -0.07993117
000350 62 1b 5f be 70 48 97 3d 2b 91 8e 3c 40 5c c7 bd
       -0.2178779 0.07386863 0.017403206 -0.09734392
000360 00 44 2f bd c6 72 7f 3d b2 1d c9 3d 01 37 92 bc
       -0.04278946 0.062365316 0.09820117 -0.017848494
000370 a0 4b 82 bd 41 29 76 3d 98 2f 28 3e 77 63 06 3d
       -0.063620806 0.060097937 0.16424406 0.0328097
000380 41 a3 34 be b0 69 23 bd 37 6e fe 3d bc 71 de 3d
       -0.17640401 -0.039895713 0.124233656 0.10861537
000390 bb 25 26 3e 52 2e eb 3a 9f bf c4 bd d8 6a 21 3e
       0.1622533 0.0017942882 -0.09606861 0.15763414
0003a0 94 51 10 3e f8 d0 11 be 7c 71 4c bd 36 8d 02 be
       0.1409362 -0.14239872 -0.049912915 -0.1274918
0003b0 81 62 6d 3d 30 86 70 3e 8a cc b5 bd 2e 79 d7 3d
       0.05795527 0.23488688 -0.08876903 0.1052116
0003c0 e1 c8 92 bc c3 d6 f0 bd ad dc ec bd e3 f2 24 bd
       -0.017918052 -0.117597125 -0.11565528 -0.040270697
0003d0 0d b7 e6 3d df e6 3f bc ea 72 ce 3d 13 7d 93 3d
       0.11265383 -0.011712759 0.10080512 0.072015904
0003e0 87 6e 9f 3d ab e1 d1 3d 42 12 8c 3d 98 f0 88 3d
       0.07784753 0.10248121 0.0683942 0.066865146
0003f0 5b 73 e1 bc 0d 6c 47 3d 2d e9 b9 3d d1 94 1d be
       -0.027520826 0.04868703 0.09077678 -0.153888

fc2.bias f4 [84]
000000 4a 93 32 bb 4f 96 10 bd 7c 0a 06 3d d0 0f bd 3c
       -0.0027248436 -0.035299595 0.032724842 0.023078829
000010 97 f6 2d bd 29 a4 c6 bc 57 f4 0a 3e d9 78 8a 3c
       -0.042471495 -0.0242482 0.13569771 0.016903328
000020 d3 e7 2a bc 3f 3b ca 3d 5f c6 9e bd ed 58 a2 3d
       -0.010431248 0.098745815 -0.0775268 0.079271175
000030 af 38 c6 bc d2 a4 f0 bd 82 48 cf bd a4 d5 82 3d
       -0.02419695 -0.11750187 -0.10121252 0.06388405
000040 a8 b5 35 bd c1 34 5c 3d 72 c2 1b 3e 0e 01 0b bd
       -0.044362694 0.053761248 0.15210894 -0.033936553
000050 b6 c8 0f 3d 75 8f fc 3d fa 98 1d bd c3 dc 91 bd
       0.035103522 0.1233205 -0.038475968 -0.07122185
000060 2c ea cf 3d d1 fe 68 3d 20 46 f5 3d b3 f4 ee 3d
       0.101520866 0.056883637 0.11976266 0.116677664
000070 a7 0e da 3d cb b5 25 3d b1 83 6b bd 5f ac d3 3c
       0.10647326 0.040456574 -0.057498638 0.025839029
000080 db ba 23 3e bc 79 a5 bd 98 01 80 3d b5 44 7a 3c
       0.15989248 -0.080798596 0.06250304 0.01527517
000090 4d ee 45 3c bd 56 f8 3b a7 e5 c8 bd eb fe 6b bd
       0.012080741 0.0075786994 -0.09809428 -0.057616156
0000a0 b3 f8 03 bd 97 bc ee bd 88 5d 9e 3d 69 37 98 3d
       -0.0322196 -0.116570644 0.077326834 0.07432444
0000b0 7f c5 69 bd e6 82 8d 3d 44 3f 9a 3b 09 1a 17 3d
       -0.057073113 0.069097325 0.004707249 0.036890063
0000c0 07 5f 8e 3d 93 02 7e 3d dd 4c 25 bd fd 6e ce bd
       0.06951719 0.062014174 -0.040356506 -0.10079763
0000d0 a1 a9 82 bc ac f3 24 3e f0 e4 a5 bc 39 07 a3 3d
       -0.015950026 0.16108578 -0.020250767 0.07960362
0000e0 07 f3 f1 3c 18 01 9b 3c 11 fa 2b be d7 67 4d bd
       0.02953483 0.01892142 -0.16794612 -0.050147858
0000f0 2a 90 ee 3d 37 fd 18 bd 1a cb a7 3c e6 f0 c1 bb
       0.11648591 -0.03735086 0.020482589 -0.00591861
000100 ed 11 bf 3b b1 95 83 bb 5b 82 de 3b d3 b6 0d bd
       0.0058309943 -0.0040156473 0.006790442 -0.034598183
000110 d7 c0 d4 bd 46 bc bc bd 41 96 05 3d bf 4c 50 3d
       -0.10388344 -0.09215598 0.032613996 0.05085444
000120 ba e8 dd 3d ad ba 09 bd ad df 64 bd 62 c4 e0 3c
       0.10835405 -0.033625294 -0.055877376 0.027437393
000130 dd 7d 0b 3e 48 85 2f be c4 9f 0f bd a0 98 30 3c
       0.13622232 -0.17140687 -0.035064474 0.010778576
000140 8d 9f 0e 3d 38 1e dc bd d8 ba 61 bd f8 8b 74 3d
       0.03482013 -0.10747951 -0.05510983 0.059703797

fc3.weight f4 [10, 84]
000000 99 d3 3d 3c 67 93 05 bd f8 a9 42 3e d6 78 08 bd
       0.011586093 -0.032611277 0.1901015 -0.033318363
000010 ec 51 28 be a5 ff 09 3d 93 57 4e 3d 45 2e 3c be
       -0.164375 0.033691067 0.050376486 -0.18377025
000020 49 b3 ec bd 65 2f c3 3c 37 d3 79 3c de 9b e4 be
       -0.115576334 0.02382631 0.015248111 -0.44650167
000030 6b 1c dd 3d b9 2f a6 be c3 7a 12 3e b4 9e 2b 3e
       0.10796436 -0.32458284 0.14304642 0.16759759
000040 37 93 c2 be 36 b6 0c be 76 bb 29 3e 6f 1f 22 be
       -0.3800294 -0.13741383 0.16575417 -0.15832303
000050 c4 39 d8 3d dc bc 87 bd 39 35 95 3d 48 b4 a9 bd
       0.10557893 -0.06627819 0.07285542 -0.08286339
000060 60 b4 cd 3d 1f 1c e2 bd 53 25 2e be 3d e9 e3 3d
       0.100441694 -0.1104052 -0.17006426 0.11128471
000070 c8 75 52 3d 50 00 93 3c c7 42 71 bd 5d 2d df bc
       0.051381856 0.017944485 -0.058901574 -0.02724331
000080 c5 f1 e2 3d 2a c3 79 3d c8 99 a2 3d 0d a7 94 bc
       0.1108127 0.06097714 0.07939488 -0.018146062
000090 cb df f2 3c d8 f1 b0 3d 8e 33 63 be e5 11 1b 3e
       0.029647728 0.08639878 -0.22187635 0.15143545
0000a0 0b a9 22 be 09 1f 9c bd b4 7c e5 3d 0e 4c ca bd
       -0.15884797 -0.07623107 0.11205426 -0.098777875
0000b0 36 86 54 be 30 18 4c be 6a 21 75 be 33 b7 18 be
       -0.20754322 -0.19931102 -0.23938528 -0.14913635
0000c0 e0 d0 3b bc f6 19 ce 3d 91 5e 8f 3d cb 85 dd 3d
       -0.011463374 0.100635454 0.07000459 0.108165346
0000d0 74 5c 90 bd 33 70 06 be 3d ed 79 be b0 67 c8 bb
       -0.07048884 -0.13128738 -0.24406905 -0.006115876
0000e0 42 6d 83 3c bc bc e2 bd aa 5d 7d be 70 bf 0c be
       0.01604331 -0.110711545 -0.24742761 -0.13744903
0000f0 36 de 86 3c 45 c4 91 bc e5 45 c9 3c f4 66 20 be
       0.01646338 -0.017793784 0.024569461 -0.15664274
000100 39 70 9c 3d d9 d7 7c be 88 ce b1 3d c0 1f 96 bd
       0.07638592 -0.24691714 0.08681971 -0.073302746
000110 9b f7 9a 3d b3 3b 0e 3d 22 d6 5e bc 34 1b b6 bb
       0.07566758 0.034724902 -0.013600858 -0.005557442
000120 be 91 48 bd 77 c9 fc 3c 39 71 29 3e 88 21 1b 3e
       -0.048967116 0.030857785 0.16547097 0.1514951
000130 87 d7 97 3d e2 a9 9a bc 6d 48 55 3e de ee 22 be
       0.074141555 -0.018879835 0.2082841 -0.15911433
000140 12 2f 73 be 37 89 a3 3d 4c 75 d1 3d 8c cc 21 3e
       -0.23748425 0.07985156 0.10227451 0.15800685
000150 82 97 2d be 6f 06 af bd 68 80 e8 3d 8b cf 4b 3d
       -0.16952327 -0.08546149 0.113526165 0.049758475
000160 56 47 2d be 71 3c 74 3d 95 c7 89 3d 33 a1 9d 3c
       -0.16921744 0.059627954 0.067275204 0.019241905
000170 d5 0c 49 3d 5b ac 69 3d 31 0c 7b bc 5e 8e d6 bd
       0.049084503 0.057049137 -0.015322731 -0.10476373
000180 0f 20 79 bd e5 46 da be d8 d0 db be a5 14 ab 3d
       -0.06082159 -0.42632213 -0.42932773 0.08353547
000190 70 3a fe bd 9a 84 80 3d 13 0c 16 be 95 d8 30 be
       -0.1241349 0.06275292 -0.14653043 -0.1727012
0001a0 64 33 e9 3d f2 a4 0e be ce 92 8d be 3a 79 c8 bd
       0.11386755 -0.13930109 -0.27651066 -0.09788747
0001b0 b8 e1 fc 3b 4b 6e 58 be 40 b5 a0 3d 1f 3f ce 3d
       0.0077173375 -0.21135823 0.07847071 0.10070633
0001c0 5c 01 88 be 14 b8 28 bd 98 0f 4f bc 32 80 08 be
       -0.26563537 -0.041191176 -0.012637995 -0.13330153
0001d0 8c af 72 bd 4c 1e 0a 3e 67 b4 9c bc dd aa 15 3e
       -0.059249446 0.1348812 -0.019128991 0.1461596
0001e0 09 ce 31 be 65 b4 f5 bc ee b3 e4 be 34 75 95 bc
       -0.17363752 -0.029993245 -0.44668525 -0.018244363
0001f0 49 4b d1 bd 59 9a f5 3d f0 15 89 bd 09 3c d6 bc
       -0.10219438 0.1199233 -0.06693637 -0.026151674
000200 f8 4d bf 3d eb 87 19 3e 6d ef 43 3e 7d 96 7b 3d
       0.09341043 0.14993255 0.19134302 0.061422814
000210 3b ba 4f be b3 f3 10 be 42 45 02 3e e1 13 82 3e
       -0.20285885 -0.14155464 0.12721732 0.2540579
000220 12 74 d3 bd 44 8c de bc b1 17 0a 3d e5 ef 02 be
       -0.10324873 -0.027166493 0.033714 -0.12786825
000230 94 b0 11 be 67 9f 7e 3c 8c 8f dc bd da 35 8a bc
       -0.14227515 0.015540934 -0.10769567 -0.016871382
000240 f5 54 ed bd dd e6 f0 3a 69 66 41 bd 55 e7 05 3e
       -0.1158847 0.001837935 -0.047216807 0.13076527
000250 5f eb 1a be c5 cf cc 3d 66 1b 1a 3a 94 8b c4 bb
       -0.1512885 0.100005664 0.00058787165 -0.0059980843
000260 2b fe 6d bd 37 7e 9c be f6 d0 3c be 6c db 38 be
       -0.05810372 -0.30565044 -0.18439087 -0.18052453
000270 9b 5d 41 be 2e ce ed bd b6 b4 a9 bb 21 e4 e2 bc
       -0.18883364 -0.11611591 -0.005179013 -0.027696671
000280 b4 8a ff bd 56 e9 20 3e 06 8b 71 3e 0d 9b b0 bd
       -0.124776274 0.1571401 0.2358819 -0.086233236
000290 2a d6 dd 3d 15 af c3 3c 05 7e 0d 3c 0f b2 98 3d
       0.10831864 0.023887197 0.008636002 0.07455837
0002a0 73 42 da 3e af 93 09 be a7 77 33 be 9a 80 43 3d
       0.42628822 -0.13435243 -0.17526112 0.047730066
0002b0 33 77 c8 3b 55 69 6b 3d 80 d2 75 be 4a 2d d7 3d
       0.0061177253 0.0574735 -0.2400608 0.10506685
0002c0 b4 a4 b8 be a5 93 17 be 72 49 69 bd bc 17 84 be
       -0.3606316 -0.14802416 -0.05695481 -0.25799358
0002d0 23 60 16 3e e6 e8 1e 3e 70 11 7c bd 28 f2 d1 bd
       0.14685111 0.15518531 -0.061540067 -0.10251266
0002e0 29 f8 a1 be e9 a9 88 3b 0e 4f 8a 3d 6f 2b 90 3c
       -0.31634644 0.0041706455 0.0675336 0.017598836
0002f0 af fa b0 3a bd dd 85 bd b6 6d 4f 3c a2 bb e9 bd
       0.0013502444 -0.06536434 0.0126604345 -0.11412741
000300 4c db 10 be 46 6e 5c be fe ee 16 3d 3f 48 bc 3d
       -0.14146155 -0.21526441 0.036849014 0.09193467
000310 f5 1c 28 bd 5b 22 2e be a0 26 bf bd 59 34 b4 3d
       -0.04104324 -0.17005293 -0.09333539 0.08799047
000320 8c 90 bf 3d 47 3e de 3d f0 5d 59 3d 1b df 28 be
       0.09353742 0.10851722 0.0530681 -0.16491358
000330 c6 c0 11 3e b1 e3 b3 3d 19 11 b8 bc 83 fc 5e 3e
       0.14233693 0.08783663 -0.02246909 0.21776013
000340 06 f3 ef bc 01 c1 1c bd b2 80 01 be e9 f8 0a be
       -0.029290687 -0.03827 -0.1264675 -0.13571514
000350 32 57 0e 3d 82 95 11 3e 40 ec 90 3d 35 81 9e 3d
       0.034751125 0.14217189 0.07076311 0.07739488
000360 c2 c9 25 be 89 d8 90 bb c7 83 cf 3c e2 92 df 3d
       -0.16190246 -0.0044203443 0.025331391 0.109166875
000370 43 7f 80 3d 24 4d 85 bd 4c 4e ee 3a aa 82 80 3d
       0.06274273 -0.06508854 0.0018181293 0.06274922
000380 b1 d9 93 3d 4a c3 49 bc e5 70 4e be 00 08 11 be
       0.07219256 -0.012314627 -0.20160253 -0.14163208
000390 8b cb d9 3d e7 d7 fe 3d 45 fe f1 3c f2 0a 03 bd
       0.10634526 0.12443524 0.02954019 -0.03199286
0003a0 96 c5 1c 3d 2e 87 ba be 41 d1 86 3c 23 cd 50 be
       0.03827437 -0.3643126 0.016457202 -0.20390753
0003b0 26 2f a1 bd 97 16 80 3e b7 51 33 3e 9d 4f 1b 3e
       -0.07870321 0.25017235 0.1751164 0.15167089
0003c0 06 c3 6d 3d e7 03 8e 3d 92 a8 38 be c4 4b 88 bd
       0.058047317 0.06934338 -0.18033054 -0.06655076
0003d0 52 59 5d 3c 9c 7c 26 bd 54 bf 93 be 1f 3c da bd
       0.013510065 -0.04064618 -0.2885691 -0.106559984
0003e0 0f 79 eb 3d 25 6a b3 3c 1e b2 64 3d 04 1d ce bd
       0.114976995 0.0219012 0.05583393 -0.10064128
0003f0 f9 f1 2e be 0b 9e 15 be a1 77 3c be d3 a2 d1 bd
       -0.17084493 -0.1461107 -0.1840501 -0.102361344

fc3.bias f4 [10]
000000 95 3f 2f 3b 13 7f 91 bd 1d e7 f0 3d d6 99 91 bd
       0.0026740779 -0.071043156 0.11762831 -0.0710942
000010 b9 71 cc bd 79 b2 b2 3d e4 f9 f2 3a 4f 61 45 3d
       -0.099826284 0.08725447 0.0018537608 0.048188504
000020 22 19 ff 3c 3f 35 83 bd
       0.031139914 -0.0640664
