trained/lenet-adder_mono_temp.pt (torch, 341864 bytes, 8 tensors)

conv1.adder f4 [60, 1, 5, 5]
00000000: c786 313f 7da1 d03e 99b7 9bbc 22ca fcbe
00000010: 9f78 153f 5a25 c0be e270 b0be d060 e63e
00000020: 831f a0be 2876 14bf bda4 6ebf 8b13 99bf
00000030: f608 893d e6bb 12bf 6eff 5ebf 0991 c9be
00000040: 5032 08bd b5df fcbe 8f0e 0bbf c7f5 d23e
00000050: f8fd 3dbf 5dc9 f1be 170b 9a3f b400 903c
00000060: dcbd d93e 1283 e03e 4f96 a43e 54f3 3bbe
00000070: 1bc5 6fbd 74a7 e9be 022d 003f 1108 803e
00000080: 0baf d8be f7dd 093f 734c 67bd 4559 2dbf
00000090: 3d99 26be 965e c23d ad17 02bf 65fb b9be
000000a0: 7d34 943e 3218 203d 3b46 9e3f dc20 843e
000000b0: 6952 3dbf 1f22 0abf 1a20 253e bc21 5e3f
000000c0: 9c63 903e a396 b1be 1695 203f a109 9fbe
000000d0: 78b4 0cbf 75da d6bd 435e 16bf 3728 853e
000000e0: ce6e 523e d439 6c3f a95a 3fbf e41d 483f
000000f0: f6f3 8b3f 4f4e 7cbe 2bab e3be 1158 02bc
00000100: 4187 e5bc 9bcf 4c3e 90a5 f4be 96d1 073d
00000110: 5e45 81be ac67 873f 1af9 693f 3865 8cbf
00000120: 69db fcbd 3d4c 023d 4f8c 58bf 9dcd d03e
00000130: 7dc3 a73e 0e42 753e bbc3 e0be b41c 9c3d
00000140: 51f5 1ebf db83 083f 2126 13be 9f10 3abf
00000150: 04de 3dbd 6806 fcbe 4311 243f 0f38 a8be
00000160: c662 a63e 3e35 6abd 97cd 943d 87bc a53e
00000170: 770d acbf 25aa dcbe 56de 873f 53bc a93e
00000180: 46da 2e3f 825a 2cbe e75c ef3d ec95 00bd
00000190: 5508 113f 007c 05be 75f6 7bbe 5f75 4fbf
000001a0: 69fd e5be d054 9b3f 01ac 47bf 4b17 113c
000001b0: 1221 42be 721c 683f f9c9 723f 0a5c c8bf
000001c0: f399 ed3f 34c1 2cbf 66ec 95bf 2ad9 bebc
000001d0: cae9 93be 66cd b23e f5b2 833e 9ce9 843e
000001e0: a5b6 533f 9983 493e 102a e03e b80a f43d
000001f0: 5ccc 97bc 680f 0dbf 8df7 1f3f d308 103e
00000200: dc1b 123f 50a3 273e 4f9a 173f 0d97 50bf
00000210: c5b8 a3bf 35b3 6d3e 3747 8abb 6e5f d7be
00000220: 51b6 303f c46d 083e 5a39 bfbe 9e15 e8bf
00000230: e563 383e 86cf 90be 7a95 713f 29e2 083f
00000240: 8965 c2bd caab 1fbf f20a 103f f8c9 9bbd
00000250: c038 233f 48a2 a0be 06e2 373f ccd8 9b3c
00000260: c67d 8d3c 8500 4b3e 3309 06bf 6c7e fa3e
00000270: 8b10 86bf f0f2 aebf 5c43 1ebe 199c f03e
00000280: b520 e4be 9ad9 0a3f 6338 16be 6a3e 853d
00000290: 2b27 463f 5f8d 5e3f e135 fd3e b998 473e
000002a0: a9e9 993e 644f 783e 25e3 433f 7874 203f
000002b0: e470 de3e 0e23 023f 2ffd 29be 0b30 c1be
000002c0: c284 3bbf 3ce2 f1be bba0 02bf a816 2dbe
000002d0: 2213 953e 274c e4be f9dc 97bc 478b e43e
000002e0: bf83 233f 42e6 893f 1ace f73e 750a 473f
000002f0: 28a1 ebbe be40 293f bdb7 e83c 2af7 6b3e
00000300: 8c24 50be 9ed8 473e 2eb3 213f c026 80bf
00000310: ab9e 613e 2879 753e e511 f5be ad01 633b
00000320: a6a7 efbe d54b d5bb f077 69bf acab 40bf
00000330: e458 0fbc 5c4f 343f b068 363f 419d 38bf
00000340: 86a8 953e 984c c4be 392c 46bf 753a 4c3e
00000350: aff3 e23e 10a3 04bf 0c4e 66be 9250 d23d
00000360: 7a4f 973f a734 023f 16c4 31bf e403 6d3e
00000370: d4bb f2be 02f0 ec3d 9364 b33e a536 16bf
00000380: d650 333e c12a 7bbf 46f6 b5bf 8560 b33e
00000390: 2f51 4d3f 1ecb 0dbd b455 b4be c4da 913e
000003a0: b750 2cbe cec0 0b3f d571 a4bd 92d1 9d3d
000003b0: 107e 9abe bc19 92be 78a6 20bf 66c9 37bf
000003c0: 79e6 99bf e844 863f 6b52 b8be 217b 1ebe
000003d0: 36c3 413f 063a 09bd c8f5 8abf eefe abbe
000003e0: 566f b4be 4f43 893f 6d5b 603f 94a4 0ebf
000003f0: d541 393e dd46 8a3e 70e8 103f e6d4 47bf
0.6934628 0.40748206 -0.019008445 -0.49372965 0.5838718 -0.37528497 -0.34461123 0.44995737
-0.31274042 -0.5799279 -0.9322012 -1.1959089 0.06691162 -0.5731796 -0.87108505 -0.39368466
-0.033251107 -0.49389425 -0.5431909 0.41203138 -0.7421565 -0.4722394 1.2034634 0.01757846
0.42527664 0.4385 0.32145926 -0.18354541 -0.058537584 -0.4563557 0.50068676 0.25006154
-0.42321047 0.53854316 -0.056469392 -0.6771434 -0.16269393 0.09490697 -0.50817376 -0.3632461
0.28946295 0.039085574 1.2365183 0.2580632 -0.7395387 -0.53958315 0.16125527 0.86770225
0.28200996 -0.3468524 0.6272749 -0.31062034 -0.54962873 -0.10490886 -0.5873758 0.26007244
0.20550081 0.9227574 -0.7474771 0.7817061 1.0933826 -0.24639247 -0.44466528 -0.007955567
-0.028018596 0.2000107 -0.47782564 0.03315886 -0.25248235 1.0578513 0.91395724 -1.096839
-0.12346537 0.031810988 -0.84589094 0.4078187 0.32766333 0.23950979 -0.4389933 0.07622662
-0.62093073 0.53326195 -0.14370014 -0.7268161 -0.04635431 -0.49223638 0.6408884 -0.3285527
0.32497233 -0.057179682 0.07265776 0.32370397 -1.3441609 -0.4309856 1.0614727 0.33151492
0.6830181 -0.16831401 0.116876416 -0.031392977 0.5665334 -0.13035583 -0.24605735 -0.8103847
-0.449199 1.2135258 -0.7799683 0.008855651 -0.18957928 0.90668404 0.94839436 -1.5653088
1.8562607 -0.67482305 -1.1712768 -0.023296911 -0.28889304 0.34922332 0.2572247 0.2595948
0.8270057 0.19679107 0.4378209 0.11916107 -0.018530063 -0.55101633 0.6248711 0.14065866
0.5707376 0.16370893 0.5921983 -0.81480485 -1.2790762 0.23212893 -0.0042199153 -0.42064995
0.6902819 0.13323122 -0.37348443 -1.8131597 0.18006857 -0.28283328 0.9436871 0.53470093
-0.094920225 -0.62371504 0.562667 -0.07606882 0.6375847 -0.3137381 0.7182926 0.019024275
0.017271888 0.19824417 -0.52357787 0.48924577 -1.0473799 -1.3667889 -0.15455383 0.46994093
-0.44556203 0.54238284 -0.14669947 0.06506045 0.77403516 0.86934465 0.4945517 0.19491853
0.3006108 0.24249035 0.7651847 0.6267772 0.43445504 0.5083474 -0.16600488 -0.37731966
-0.7324945 -0.47242916 -0.51026505 -0.16903174 0.2911616 -0.4458935 -0.018537985 0.4463751
0.63872904 1.0773394 0.4839943 0.7775033 -0.4602139 0.66114414 0.028407926 0.23043504
-0.20326442 0.19516227 0.6316403 -1.0011826 0.22033183 0.23971999 -0.47865215 0.003463845
-0.46807593 -0.006509284 -0.91198635 -0.7526195 -0.0087492205 0.7043359 0.7125349 -0.7211495
0.29230136 -0.38339686 -0.7741123 0.19944175 0.4432654 -0.51811314 -0.2249071 0.10269274
1.1821129 0.5086159 -0.6943983 0.23146015 -0.47408926 0.11569215 0.3503767 -0.5867713
0.17511305 -0.9811211 -1.4215782 0.35034576 0.80202 -0.034617536 -0.35221636 0.28487217
-0.16827665 0.5459107 -0.08029524 0.07705988 -0.30174303 -0.2853526 -0.6275401 -0.71791685
-1.202346 1.0489779 -0.3600038 -0.15476657 0.75688493 -0.0335026 -1.0856256 -0.33592933
-0.35241193 1.0723666 0.87639505 -0.55719876 0.18091519 0.2700719 0.5660467 -0.7805923

conv2.adder f4 [16, 60, 5, 5]
00000000: 415a 38bc bf3b 34bf be42 3a3f b6ad 083e
00000010: 1c56 293e 8597 fd3d 5063 0bbf fd11 53be
00000020: bb30 363f 275b 743e 622b 58bf 7650 f93e
00000030: f45f 31be df10 cabd b046 dbbe d17c f73e
00000040: 1043 263f 44b8 b73e f9e9 63be dd09 8f3e
00000050: dbe2 19be ed4d 983d 2a83 8b3e c955 9abd
00000060: 70bd 153f c813 b6bd ff32 fbbe 79dc 1a3f
00000070: 9645 113e c0fc efbe a47f 853e e38d 083f
00000080: 0dd9 9b3d f9fd fc3d 3fe5 6bbe 2da3 11bf
00000090: b908 3ebf d900 2dbe a8cb eabd 200c 1a3d
000000a0: 943e 74be 222b 9d3e dde0 093f 7fab 463d
000000b0: 6174 91be c960 853e 21ca d3bd b2eb 4e3f
000000c0: bde9 b3be 73c0 0ebe 7847 953d f20a 8dbc
000000d0: 3458 223e 75de f23e dcb7 263d daea 833e
000000e0: 993d a2bd ab2a 0bbe 7b63 83bd 4437 d9be
000000f0: 9291 55be 24db 2f3d 890c e6bd a95e cdbd
00000100: f6da 0bbf 0839 b73d ed61 a9be 8fbe 883d
00000110: bf48 cfbe f89f 60bf b172 363e 6871 023e
00000120: 1bd7 d23e 4249 c63e 1a90 463f 47d3 6b3d
00000130: 3262 babc 9537 ccbd 1f87 0d3f 448f d23b
00000140: b213 d1be 1522 153f 74c4 e93b 23e4 eb3e
00000150: 3dd2 233d 4a19 223f 8650 813f edb7 103f
00000160: db9e 683d 188e f0bc ab3a 45bc 676c 843e
00000170: a103 cb3d 17b2 67bf 86fc 7fbe 4989 5e3d
00000180: ed4f a7be 16d1 163e 024f 60be 23cb 523e
00000190: a47e 2bbf b37d cf3d 4eae b4be 055c fabe
000001a0: 7b37 d6bd 0f4c bf3d 3cc0 b7be ba39 503f
000001b0: 5590 df3e 1869 113d 9825 703e 2310 0f3f
000001c0: 25c0 663e 91cd 033f b29a d73d 5bb9 02bf
000001d0: f419 b83e c394 2fbf 3aa8 4cbf da24 42bf
000001e0: 17a4 75be 3acb 66bf 66e4 91be 52ed 7f3d
000001f0: 5153 34bd 588c b1bb d8b4 5a3e 1bd9 9d3e
00000200: 9662 f0be 9ca3 2ebf 447c b13d 9f32 9cbe
00000210: 05f6 e8be 4fc7 413f ba6e 0dbf fe9b 963e
00000220: 62bc 0f3f fa0b 6abe 5d75 813e 8d17 853d
00000230: ad6c e1be f9dd 88be ceae b33e 0d00 083f
00000240: 486e 393f dc5a 19bf 35ab 30be 9b62 823e
00000250: bf9f 473f e0d9 193e f98f 0a3f 08a3 933e
00000260: 0591 e5be bdca 48be 6602 75be f1cc a83d
00000270: b3c9 6abe d9cf dc3e 6310 ab3e f6ae 7c3e
00000280: c0df ad3d 3dc0 903c e29f d43d 44af b2be
00000290: 8383 2d3e 8751 86be 9141 57bd e0c2 a93e
000002a0: c4fa 813e 41c6 13bf 813c ccbd 3103 b53e
000002b0: aaf4 04bf 327d 81be ef12 e1bd 3e04 933e
000002c0: 8cfa 6d3b 1cb4 0f3f 7230 d53e 67e7 ec3e
000002d0: e717 7b3e 97e0 763e f98b 9fbd d01f f1be
000002e0: 3e33 e33e 44b3 14be 1950 e73e b914 633e
000002f0: 319a 173e f7a8 123e dbae fe3e 43e8 a23e
00000300: 2db7 d3bc b1c9 04bf c60b 71be 91f3 3fbe
00000310: a382 b0be 6276 0ebe ef75 973d 9ea5 39bd
00000320: f1c6 b4bd f308 203e 3038 15bd e4b0 c4be
00000330: 5d7c 363f 50ca be3d 483e bcbe 771b 14bf
00000340: b5ae c93e 3ee8 103e bb1b a23e c817 903d
00000350: 6811 0e3e d403 203a eec9 29be 3458 c03d
00000360: ae13 b4be 06c1 293f 89dd aebe ae16 00bf
00000370: bb2b 22bf f339 8cbe 3dfd ffbe 5489 a7bc
00000380: 659f 193f 3f03 2dbf 0394 fb3e 016a 053f
00000390: 7dd1 92be 7818 bbbe 500c 17bf 7e83 b63e
000003a0: 8feb 12be 8fb4 3a3e b2d1 26be 29ed 8bbe
000003b0: 9bce 15bf 8a92 fc3d 7e4b c93e 0b7b 1fbe
000003c0: 94af 253e 0e3e 2d3e 7540 d2be c4d7 b4bd
000003d0: c734 36bc 3ca6 18bf fb0f 243f 4905 8bbe
000003e0: 0db0 243f 86c9 9dbd 6546 873e 9201 90bd
000003f0: b1ad d1bd 285c 81be 2a84 2bbf 77c8 293f
-0.011251987 -0.70403665 0.7275809 0.13347515 0.16536754 0.12382416 -0.54448414 -0.2061233
0.71168107 0.23862897 -0.84441197 0.486942 -0.1732176 -0.09866499 -0.42827368 0.48337415
0.6494608 0.3588277 -0.22257222 0.27937213 -0.15027945 0.07436738 0.27248508 -0.075358935
0.58492184 -0.08890492 -0.49062344 0.60492665 0.14186701 -0.4687252 0.26073945 0.533415
0.076097585 0.12353129 -0.23036669 -0.5688961 -0.7423206 -0.16894855 -0.114646256 0.03760922
-0.23851997 0.3069697 0.5385874 0.048503395 -0.28409103 0.26050404 -0.103412874 0.8082839
-0.35139266 -0.13940601 0.07289022 -0.017217133 0.1585396 0.47435346 0.040702686 0.25765115
-0.07921905 -0.13590495 -0.06415459 -0.42424977 -0.20856312 0.0429336 -0.1123286 -0.100278206
-0.5463098 0.08946425 -0.33082524 0.06676971 -0.40485188 -0.8774409 0.17817189 0.12738574
0.41179737 0.38727766 0.7756363 0.057574537 -0.022751901 -0.09971539 0.55284303 0.00642577
-0.4083534 0.5825513 0.0071340147 0.46072492 0.03999542 0.6331984 1.0102699 0.5653065
0.05679212 -0.02936463 -0.012037913 0.25863954 0.099128015 -0.9050612 -0.24998674 0.054330144
-0.32678166 0.14728197 -0.21905139 0.20585303 -0.66990113 0.10131397 -0.35289234 -0.4889833
-0.10459801 0.09340679 -0.3588885 0.81338084 0.43664804 0.035500616 0.23451841 0.55884
0.22534235 0.51485544 0.10527553 -0.5106408 0.359573 -0.6858637 -0.79944193 -0.7583748
-0.23988377 -0.9015385 -0.28494567 0.062482186 -0.04402477 -0.0054183416 0.21358049 0.308297
-0.46950215 -0.682184 0.0866628 -0.3050737 -0.45500198 0.75694746 -0.5524708 0.29415888
0.56146824 -0.22856131 0.25284854 0.064986326 -0.44028226 -0.26731852 0.35094303 0.5312508
0.724339 -0.59904265 -0.1725281 0.25465855 0.7797813 0.15024519 0.54125935 0.2883532
-0.44837204 -0.19608589 -0.23926696 0.082422145 -0.22928505 0.43127325 0.3341094 0.24676117
0.084899426 0.017669791 0.10382058 -0.34899342 0.16944699 -0.26234075 -0.052552763 0.3315649
0.2538663 -0.57724386 -0.09972478 0.35353997 -0.5193583 -0.2529083 -0.109899394 0.28714174
0.0036312668 0.561342 0.41638523 0.46270296 0.24520837 0.24109112 -0.077903695 -0.47094584
0.44375032 -0.1452151 0.45178297 0.22175874 0.14804913 0.14322267 0.4974278 0.31817827
-0.025844181 -0.51870257 -0.23539647 -0.18745257 -0.34474668 -0.13912347 0.07395541 -0.04532396
-0.088270076 0.15628414 -0.036430538 -0.38416207 0.71283513 0.09315932 -0.36766267 -0.5785441
0.39391103 0.14151093 0.31661782 0.07035786 0.13873827 0.0006104086 -0.16580936 0.093918234
-0.35171264 0.66310155 -0.34153393 -0.50034606 -0.6334798 -0.27387962 -0.49997893 -0.020451225
0.6000884 -0.6758308 0.4913636 0.52114874 -0.28675452 -0.36542106 -0.5900316 0.35647196
-0.14347671 0.1823294 -0.1629093 -0.27329376 -0.5851838 0.123326376 0.39315408 -0.15574281
0.16180259 0.16918203 -0.41064802 -0.088302165 -0.011120982 -0.59628654 0.64086884 -0.2715247
0.6433113 -0.07704453 0.26420894 -0.070315495 -0.10238207 -0.25265622 -0.6699854 0.6632151

fc1.weight f4 [120, 400]
00000000: 7a2d bd41 497d bd41 e62c bd41 8437 bd41
00000010: 9931 bd41 6a6a bd41 2478 bd41 9164 bd41
00000020: 6892 bd41 9b88 bd41 088b bd41 5f3d bd41
00000030: 0746 bd41 154c bd41 b429 bd41 3c37 bd41
00000040: a06b bd41 4f77 bd41 177c bd41 e29c bd41
00000050: 6d55 bd41 266c bd41 5157 bd41 144f bd41
00000060: 6f55 bd41 112c c641 ce28 c641 4569 c641
00000070: 6193 c641 6d7e c641 716c c641 f483 c641
00000080: ad88 c641 86a6 c641 3363 c641 803e c641
00000090: 5a2e c641 f547 c641 b837 c641 ac82 c641
000000a0: d929 c641 cba0 c641 113a c641 2047 c641
000000b0: 762e c641 f069 c641 53a5 c641 73a4 c641
000000c0: 6932 c641 3b2c c641 e2ae c441 4db2 c441
000000d0: 3f99 c441 5b81 c441 b3e2 c441 359d c441
000000e0: c994 c441 e385 c441 4e9a c441 13f0 c441
000000f0: 5099 c441 b2b8 c441 98a2 c441 35f8 c441
00000100: 19bc c441 52ba c441 bde5 c441 bbd0 c441
00000110: 22b7 c441 e7e9 c441 5edc c441 d0c8 c441
00000120: 009b c441 71be c441 8aa5 c441 607b c341
00000130: 9cae c341 cc6c c341 7e67 c341 b750 c341
00000140: e467 c341 3592 c341 7561 c341 8975 c341
00000150: ba7b c341 c28c c341 6276 c341 60ab c341
00000160: ef4c c341 7461 c341 d749 c341 bf92 c341
00000170: 917e c341 2f62 c341 3e8f c341 ff87 c341
00000180: d5ab c341 7b7c c341 6664 c341 e5a3 c341
00000190: 5d4c be41 f84b be41 f761 be41 a648 be41
000001a0: b583 be41 9475 be41 9862 be41 3d50 be41
000001b0: 4c6b be41 3d79 be41 1a35 be41 283f be41
000001c0: 91a2 be41 7e37 be41 e988 be41 c86b be41
000001d0: 8b87 be41 0441 be41 787d be41 3c83 be41
000001e0: 639e be41 5b67 be41 e98c be41 4241 be41
000001f0: 2e43 be41 fa55 c441 686c c441 685a c441
00000200: 2c57 c441 c742 c441 7db0 c441 67b9 c441
00000210: 4f67 c441 a29e c441 8c74 c441 f443 c441
00000220: 6f45 c441 7b84 c441 e48c c441 9f8a c441
00000230: 126a c441 06a3 c441 c982 c441 cf85 c441
00000240: ab40 c441 2374 c441 0f66 c441 ad9f c441
00000250: f69b c441 a449 c441 53be c341 37c8 c341
00000260: eba8 c341 c78c c341 bfb8 c341 6885 c341
00000270: 9ab1 c341 569d c341 37e9 c341 1c9e c341
00000280: 75eb c341 be87 c341 8fd3 c341 eac2 c341
00000290: 1a92 c341 e0bc c341 2dd7 c341 4dac c341
000002a0: bedf c341 05f6 c341 c3aa c341 8ca7 c341
000002b0: 24b6 c341 467a c341 4cbb c341 dc05 bf41
000002c0: 40dd be41 510a bf41 fea3 be41 f1a7 be41
000002d0: 3a19 bf41 8ae4 be41 bcc2 be41 e3f0 be41
000002e0: ff0f bf41 f5de be41 2abf be41 05d2 be41
000002f0: 29f2 be41 6015 bf41 78b9 be41 c4c7 be41
00000300: d908 bf41 90e5 be41 0aff be41 beec be41
00000310: f6ee be41 69db be41 91e3 be41 d4e4 be41
00000320: e6d5 bc41 7c33 bd41 03fb bc41 09d5 bc41
00000330: d709 bd41 e010 bd41 8f18 bd41 35cf bc41
00000340: 51d1 bc41 5de1 bc41 d6c7 bc41 7cde bc41
00000350: dfcf bc41 e21a bd41 570d bd41 b3e6 bc41
00000360: 92fd bc41 27fe bc41 282a bd41 c6cc bc41
00000370: 6841 bd41 34e9 bc41 1921 bd41 6ae9 bc41
00000380: b2e3 bc41 6a8b c641 f8a2 c641 6860 c641
00000390: fcae c641 8077 c641 d68b c641 9694 c641
000003a0: 0b9a c641 bd7f c641 2e3c c641 c775 c641
000003b0: 7e63 c641 21ab c641 4ea0 c641 3a65 c641
000003c0: 0c43 c641 3a93 c641 4245 c641 7cac c641
000003d0: 448f c641 c897 c641 5f95 c641 ce8a c641
000003e0: 1f94 c641 fe86 c641 3f18 c141 c7cf c041
000003f0: be04 c141 60e4 c041 a02c c141 2e2d c141
23.647205 23.686174 23.646923 23.652107 23.649218 23.67696 23.683662 23.674105
23.696487 23.691702 23.692886 23.654966 23.659193 23.66215 23.645363 23.65197
23.677551 23.683256 23.68559 23.701603 23.666712 23.677807 23.667635 23.663612
23.666716 24.771517 24.769924 24.801401 24.821962 24.811731 24.80295 24.81443
24.816736 24.83131 24.798437 24.780518 24.772633 24.785135 24.777206 24.813805
24.770433 24.828512 24.778353 24.784729 24.772686 24.801727 24.830725 24.830297
24.774614 24.771597 24.585392 24.58706 24.574827 24.563162 24.610693 24.576761
24.572649 24.565374 24.575344 24.617224 24.57486 24.590183 24.579391 24.621195
24.591845 24.590977 24.612177 24.60192 24.58942 24.61421 24.607601 24.598053
24.575684 24.592989 24.58083 24.435242 24.460258 24.428123 24.425533 24.414412
24.425728 24.44639 24.422586 24.43239 24.435413 24.44373 24.432804 24.45868
24.412565 24.422585 24.411055 24.446653 24.4368 24.422941 24.444942 24.441404
24.458902 24.435781 24.424023 24.455027 23.787287 23.787094 23.797834 23.785473
23.81431 23.807411 23.798141 23.789179 23.802391 23.809198 23.775928 23.780838
23.829378 23.777096 23.81685 23.802628 23.816183 23.781746 23.811264 23.81408
23.827337 23.800467 23.818804 23.781864 23.782803 24.54198 24.552933 24.544144
24.542564 24.532606 24.586176 24.590528 24.550444 24.577457 24.556908 24.53318
24.533903 24.564688 24.568794 24.567686 24.551792 24.579601 24.56386 24.565336
24.531576 24.556707 24.549833 24.577967 24.576153 24.535957 24.467932 24.472761
24.45748 24.443739 24.465208 24.44014 24.46172 24.451824 24.488874 24.452202
24.48997 24.44128 24.4783 24.470173 24.446339 24.467224 24.480066 24.459131
24.48425 24.495127 24.45838 24.45681 24.463936 24.434704 24.466454 23.877861
23.858032 23.880037 23.830074 23.832003 23.887318 23.861591 23.845085 23.86762
23.88281 23.858866 23.843342 23.852549 23.868242 23.885437 23.84056 23.847542
23.87932 23.862091 23.87453 23.865597 23.86668 23.857134 23.861116 23.861732
23.604443 23.650139 23.622564 23.604021 23.629805 23.63324 23.636992 23.601175
23.602205 23.61004 23.597576 23.608635 23.6015 23.638126 23.631514 23.612646
23.623814 23.624098 23.645584 23.599987 23.656937 23.613869 23.641161 23.613972
23.61118 24.818073 24.829575 24.797073 24.835442 24.80835 24.81828 24.822552
24.825216 24.812372 24.779385 24.807508 24.79858 24.833559 24.828274 24.799427
24.782738 24.821888 24.783817 24.83422 24.819954 24.824112 24.822935 24.817776
24.822325 24.815914 24.136839 24.101454 24.127316 24.111511 24.14679 24.14706

fc1.bias f4 [120]
00000000: 59d2 31bd 3618 a0cc 50cc 3ec8 08c8 863c
00000010: 7f90 e7bb 9fb2 c43b d161 57c6 5415 4cd0
00000020: 9ccb 02c2 351a 43bd 0e42 f9bc 1937 43bc
00000030: a6e4 92bb a662 84bf 994d 7a3c 1265 6339
00000040: d74d 9dbc 460f f4bc f985 d3c6 814f 003c
00000050: 18a8 cf3c 8fa9 fb3c 1900 a83c a67d 4fc2
00000060: eb9b a93c 0ed7 28c2 234e 8ac6 fe9e 16c2
00000070: 1173 12c8 61cd 32bd 45c3 8fc0 4974 2dbc
00000080: aeac 14c2 a0af 983c d09c ac3c 78f8 e8bc
00000090: ffdc 83bb 6378 c7bc 7662 6cbc 0054 01bb
000000a0: e849 16c4 fcb1 46bd 7b2a fbbc 93e4 c0c2
000000b0: add8 7dbc 726b 7a3c 4af7 7cbc 8d08 e23c
000000c0: 0fc6 be3b 12ea 133c 9886 f3c5 5f69 0dc2
000000d0: d91e 8ac2 e359 03c3 a677 1d3c f232 d1c4
000000e0: f159 69bc a2cc cfbe b398 95bc 860d c73c
000000f0: cd4b 01bd 2d8e 5b3c 7170 c03c 6523 79c2
00000100: 4089 1ac2 fa33 b1c7 3761 b2bc b144 173c
00000110: 053c b8bc 12a8 e6bc 67c0 08bd e941 92bc
00000120: af73 a4bc 4a8f d2c5 979a 00bd 87b8 11c6
00000130: a227 02bd 7c5b 25c0 53bd e1c2 e46c 0abd
00000140: 7a83 94bc b4a4 b83c 8a95 08c3 d9cd 2d3c
00000150: 0a85 b23c 4dbb 7ec5 565f 56c9 c554 3abb
00000160: 31ad 22bd 594d 9f3c 65ca ccbc d110 2bbc
00000170: 0fb2 b0c9 cfa5 b5c1 0e30 70c1 b5c5 043c
00000180: 014f 11c3 717e 973a 707b b33a a05b cd3b
00000190: 4da5 9e3c 0af4 bdc1 0031 373c 1da8 b8c1
000001a0: 380c f6bc 01ad e4bc b003 0cbd c077 a9bc
000001b0: 13c3 a63c 5920 93bc cd2f 00bc 170c 63bf
000001c0: ba89 aec4 8c6a febc 93fe b63b e294 74bc
000001d0: eb24 81bc c259 cac8 b699 48cb 3775 39cb
-0.043413494 -8.393566e+07 -195377.25 0.016452804 -0.007066786 0.0060027386 -13784.454 -1.3695799e+10
-32.698837 -0.047632415 -0.030427005 -0.011914992 -0.0044828234 -1.0342605 0.01527729 0.00021686059
-0.019202156 -0.02979244 -27074.986 0.007831455 0.025348708 0.0307205 0.020507859 -51.872704
0.02070423 -42.210014 -17703.068 -37.655266 -149964.27 -0.043652896 -4.4925866 -0.010586807
-37.168633 0.018638432 0.021070868 -0.028438792 -0.0040241475 -0.024349397 -0.014427772 -0.0019733906
-601.1548 -0.048509583 -0.030659905 -96.446434 -0.015493554 0.015284406 -0.015439818 0.027591968
0.0058219503 0.009027975 -7792.824 -35.3529 -69.06025 -131.35112 0.009611046 -1673.592
-0.014242635 -0.4058581 -0.01826129 0.02429844 -0.03156643 0.013400597 0.023491116 -62.284565
-38.634033 -90727.95 -0.021774871 0.009232686 -0.022489557 -0.028156314 -0.033386614 -0.017853694
-0.020074693 -6737.911 -0.03139743 -9326.132 -0.031776078 -2.5837088 -112.869774 -0.033795252
-0.0181291 0.022539474 -136.58414 0.01060816 0.021791954 -4075.7063 -878069.4 -0.0028431874
-0.03971595 0.019446062 -0.024998853 -0.010441021 -1.4474899e+06 -22.705961 -15.011732 0.008103778
-145.30861 0.0011558068 0.0013693403 0.006267026 0.01936593 -23.74416 0.011181116 -23.082087
-0.030035123 -0.027914526 -0.034183204 -0.020686984 0.02035669 -0.01795976 -0.007823897 -0.8869032
-1396.304 -0.031056665 0.005584547 -0.014928075 -0.015764674 -414414.06 -1.314655e+07 -1.2154167e+07

fc2.weight f4 [84, 120]
00000000: d1c5 1ac1 2711 43e3 b5c9 aebb 266a 86c1
00000010: 04c6 4bc2 ab14 59c1 6abf 56bd 33ad da3c
00000020: 3b9b 73c1 9cb9 fac1 a9c3 3a3d 7c88 b1bb
00000030: 1199 7ac2 8ce5 cc3c df3e bbc0 9f74 39c1
00000040: 9646 963c 8f7b 48c2 fde3 82bb a0d3 ba3c
00000050: ef5f ea3c e9b3 073d 63f6 69c2 1745 c3c1
00000060: b883 463c 288e 9cc1 6735 4a3d 90f7 8ec1
00000070: 9f6d 24c2 9259 0ec2 9280 103c 13a7 fb3b
00000080: d735 8ac1 3bf6 09c2 a389 83c0 e40d 82c2
00000090: 95af 21c2 6613 ba3b 8dca cdc0 df76 dfc1
000000a0: 3b5e 24bb ec2b 70bb aab4 3ac2 bd0d 34c2
000000b0: 1777 1e3d 663b aabb f6f4 a03b 5f69 b0bb
000000c0: dde6 25bc 0397 5a3d 0a22 443d 752e 86c1
000000d0: a4f7 00c2 3917 76c2 83b1 863c b720 d73c
000000e0: b318 87c0 cfb4 103d b1b3 5b3c aa01 6ac2
000000f0: 9527 01c2 95ab 84c2 a5ef bfc1 8a35 eac1
00000100: c320 91c1 8398 1cbd 76ba e0c1 4c65 12c2
00000110: 494c 143c dd2a b8bb 0222 86c2 13e0 e2bc
00000120: d55f 2fbd e29b 41bd 422c 04c1 7e86 d4ba
00000130: 2874 c2c1 b6d9 abbf b7fd 52c2 f39f 98c1
00000140: cf37 393d d6ec d33c 8150 7fc2 baab 5dbd
00000150: e620 623d cb51 ba3b 38c1 49bd 2d5e 80c1
00000160: b1c9 27c0 a711 5dbb d984 463c b28a 78bc
00000170: 80f0 87d3 793e 28c1 904a dbc0 92c8 da3c
00000180: 12f6 87c2 b0ed 5e3d 8f1f 12c1 c4ec b0c1
00000190: 5a3a 5a3b 7944 31c1 4a83 afbe f26f 2bc1
000001a0: 88fb 5d3d a4a7 c6c1 e7dc 17c2 3c51 a4c1
000001b0: 2b41 c1c0 e1ce 93c2 e2b3 d03b 36b8 553d
000001c0: c998 8f3c 0507 c8c1 7fd4 20c2 2ead 64c1
000001d0: 7054 c63c 136d f7bc d607 d4cd 8b7c adce
000001e0: 72f5 fd3c 513f 82e3 8a49 dbbb 0e6d bbbc
000001f0: 5ef3 5b3d 5689 08bd b8e1 043d 2da5 88bb
00000200: 8917 62bd 1b5d 2d3d 0bb7 9fbc a124 00bd
00000210: 5198 2abd 72aa 303d f545 bd3c cdd6 8ebb
00000220: cf6b 093d 142d 4bbd 595d 29bd 1953 f7bc
00000230: 654f e7bc 28fd 68bd a138 503d 5459 29bd
00000240: 1908 ac3c aefd 46bd 707d 1bbc 880f dbba
00000250: 4fee c5bc 8565 18bd 4469 903c 7188 8e3c
00000260: afec 133d b69f 5bbd ce56 9d3c 7ef1 2f3b
00000270: 4171 c23c 0c3e 16bc 4534 4abd c40e 36bd
00000280: fc9d a2c7 d7df 5a3d a20b 12bd 3e2e 1f3d
00000290: 55ac 5e3c 0b42 8e3c b7f0 9f3c bdaa 443d
000002a0: bce9 23bd f5fc 953b efaa 5cbc de85 fbbb
000002b0: e2e9 61bd c162 52bd 9c20 2f3d e16f 5ebd
000002c0: ac00 ee3b e709 873c 3401 82bc 15d5 593c
000002d0: 0ca2 5e3d 9863 0fbd c0c0 42bc 6735 0cbd
000002e0: b80d 29bd f089 083d a57a 1fbd f129 4f3c
000002f0: 6b8c 1d3d 0c54 9abc f239 eb3c b140 1fbb
00000300: 348f ec3c 4fe9 26bb d291 153d 51c5 12bd
00000310: 0597 443c 71ed dfbc 77c2 c63c 228e d03c
00000320: 05f8 573b 98cd 233d 8429 b73c 0154 a7bc
00000330: 003a 21bd 3e91 b53b ef41 03bc 9cf4 253c
00000340: e34d 2b3c ab0c 8a3b 7d3c ee3c 996b 9a3c
00000350: 182c 28d9 5be7 46bd 2ca4 95bc 2343 09bc
00000360: 4702 2abc b5d1 393d 74dc 32ba 35e6 cfbc
00000370: ddd7 1a3d 4a08 3f3d 8d4d 383d 08bd 8f3c
00000380: d830 403d 0b69 b4bc 813d fe3b 36e9 ccbc
00000390: ae28 24bd e95e 443d 471e 4ebd 089f b2bc
000003a0: 52e8 15bd 0f88 603d 95b8 543d 6cf4 f03c
000003b0: 39d9 4f3d 7134 f7bc f992 0dce f7ac e7ce
000003c0: 3c32 16c0 f6d0 15bd 02ee 2dc9 2a7e 7dc0
000003d0: 47fb 41c1 16ce 4cc0 1779 c3c9 6615 213d
000003e0: 11ef 63c0 d9f4 f0c0 700a 72bc 4edd 643c
000003f0: 5ee9 6dc1 4dbf 1dbd d717 b0bf 5a04 33c0
-9.673295 -3.598351e+21 -0.005334104 -16.80183 -50.943375 -13.567546 -0.05242864 0.026693916
-15.225398 -31.34063 0.045596752 -0.0054178815 -62.64948 0.0250118 -5.8514247 -11.590972
0.018344205 -50.120663 -0.0039944635 0.022805989 0.028610198 0.03313056 -58.490612 -24.408735
0.012116365 -19.569412 0.049367335 -17.87088 -41.10705 -35.58747 0.008819716 0.007679829
-17.276289 -34.49046 -4.1105514 -65.02713 -40.421467 0.005678582 -6.4309754 -27.933043
-0.002508058 -0.0036647273 -46.67643 -45.013416 0.03868779 -0.005195069 0.004912014 -0.005383655
-0.010125843 0.053366672 0.047884025 -16.772684 -32.241837 -61.52268 0.016442066 0.026260717
-4.221765 0.035328683 0.013409541 -58.501625 -32.288654 -66.33512 -23.992014 -29.276142
-18.140997 -0.038231384 -28.091045 -36.598923 0.009051391 -0.005620344 -67.06642 -0.027694738
-0.042816002 -0.047267802 -8.260805 -0.0016214398 -24.306717 -1.3425815 -52.74777 -19.0781
0.04521924 0.025869768 -63.828617 -0.05411885 0.055207156 0.00568602 -0.049256533 -16.045984
-2.6216853 -0.0033732445 0.012116634 -0.015169786 -1.167711e+12 -10.515252 -6.852852 0.026706968
-67.980606 0.054425895 -9.132705 -22.115608 0.003329894 -11.079217 -0.34279853 -10.71483
0.054194957 -24.831856 -37.965725 -20.539665 -6.039205 -73.90406 0.0063691 0.05217763
0.017528908 -25.003428 -40.207516 -14.29228 0.024210185 -0.030203378 -4.446604e+08 -1.4553102e+09
0.031000827 -4.8052783e+21 -0.006692116 -0.02287915 0.05369889 -0.0333341 0.032441825 -0.004170081
-0.055198226 0.04232512 -0.019496461 -0.031284932 -0.041649166 0.0431313 0.023104647 -0.0043591023
0.03355008 -0.049603537 -0.04134879 -0.030190991 -0.0282361 -0.056882054 0.050835256 -0.041344956
0.020999955 -0.04858177 -0.009490356 -0.0016713003 -0.024161486 -0.03720619 0.01762832 0.017399045
0.03611439 -0.05361911 0.01920643 0.0026846821 0.023735644 -0.009170067 -0.049366254 -0.044447675
-83259.97 0.053436127 -0.035655625 0.03886246 0.013590892 0.017365476 0.019523961 0.04801439
-0.04001783 0.004577274 -0.013468488 -0.0076758703 -0.05515469 -0.05136371 0.042755708 -0.054305915
0.0072632637 0.016484214 -0.015869714 0.013295432 0.05435376 -0.03500709 -0.0118867755 -0.034230616
-0.04127285 0.033334672 -0.038935322 0.012644277 0.03846399 -0.018838905 0.028714154 -0.0024300034
0.028876878 -0.0025468653 0.03651602 -0.035832707 0.0119988965 -0.0273349 0.02426265 0.0254584
0.0032954228 0.03999099 0.022358663 -0.020425798 -0.039361954 0.005540996 -0.008011325 0.01012912
0.010455581 0.004212936 0.029081577 0.018850135 -2.9585174e+15 -0.04856048 -0.01826676 -0.008377823
-0.0103765195 0.045366008 -0.0006823011 -0.025378326 0.03780352 0.046638764 0.044995833 0.017546192
0.04692158 -0.022022745 0.0077587967 -0.025013547 -0.040077858 0.047942076 -0.050321843 -0.021804348
-0.03659851 0.054817256 0.051933844 0.029413424 0.05074427 -0.030176373 -5.9380486e+08 -1.9434362e+09
-2.346816 -0.036576234 -712416.1 -3.9608254 -12.123847 -3.2000785 -1.6013149e+06 0.039327048
-3.5614665 -7.5298886 -0.014772996 0.013968779 -14.869474 -0.038512517 -1.3757275 -2.7971406

fc2.bias f4 [84]
00000000: 3fb6 65cc 2f88 99cc e03f 9ec9 c012 d2c6
00000010: 6ecb 32cd 78f2 1bc8 905d 4bca 063d 25cc
00000020: 5ac3 42c3 de33 1acb 6b52 14cd 9328 04c8
00000030: 6e5d b0cc 878c 2fc5 2f11 90cc 9948 efca
00000040: 65bc 43ca 2d07 2ec8 6694 1bc3 d1bc 0eca
00000050: b211 92cc 6d9a 7dc8 ca9e ddcc 4fb5 e6c7
00000060: 7382 3fca e88f 40cc a79c a4cc 5737 02c5
00000070: 7d6d 2dd1 6963 b2cc 241f 7dc7 3330 1bcc
00000080: 1ebd 06cd f114 17cd c44d c0cc 8844 1acb
00000090: aa25 68c2 8e55 07c7 4361 28ca fde7 bbc5
000000a0: 339b 86c6 624b b6cc 531a 8bcc f821 7ccc
000000b0: 2355 02d2 51a0 b2cb 0c42 92c8 53b1 acc8
000000c0: f6f5 13c3 5aa7 aac7 6716 90cc 7b32 14c2
000000d0: db6e 5dcc 344c b5cc 2268 9bd1 f9ba 0ecb
000000e0: a4eb aacc 54c0 39cb f8e2 82cc a29e 2fc7
000000f0: 4bac 1ccd 8643 19c8 f73e 3cc8 6913 0dc8
00000100: 5c7c 9ccc 5f8f 35c5 d856 b7cc d5af 66c2
00000110: 3d44 1bc2 079c 37ca 94ae 9fc6 e78f 6bcc
00000120: f896 d3cc dc93 1bc8 27bf b0cb df90 17c8
00000130: c2e3 d2cc 73ad 5ec1 1ae2 d9c9 f7b6 64c8
00000140: 7a02 10c2 af5a c1c2 3b55 bbcc 1e69 05cd
-6.0217596e+07 -8.049497e+07 -1.29638e+06 -26889.375 -1.8747978e+08 -159689.88 -3.33194e+06 -4.331625e+07
-194.76309 -1.0105822e+07 -1.5552683e+08 -135330.3 -9.246603e+07 -2808.783 -7.5532664e+07 -7.8408445e+06
-3.2069372e+06 -178204.7 -155.57968 -2.3386122e+06 -7.658229e+07 -259689.7 -1.1619285e+08 -118122.62
-3.1376928e+06 -5.047901e+07 -8.6304056e+07 -2083.4587 -4.655414e+10 -9.3526856e+07 -64799.14 -4.0681676e+07
-1.412838e+08 -1.5842075e+08 -1.0082256e+08 -1.0110088e+07 -58.03678 -34645.555 -2.7587368e+06 -6012.9985
-17229.6 -9.55748e+07 -7.2929944e+07 -6.609507e+07 -1.3994353e+11 -2.3412898e+07 -299536.38 -353674.6
-147.96078 -87374.7 -7.554335e+07 -37.049297 -5.804734e+07 -9.505219e+07 -8.343337e+10 -9.353977e+06
-8.961155e+07 -1.2173396e+07 -6.862227e+07 -44958.633 -1.6428357e+08 -156942.1 -192763.86 -144461.64
-8.204362e+07 -2904.9607 -9.612256e+07 -57.67171 -38.81664 -3.0082578e+06 -20439.29 -6.1751196e+07
-1.1093395e+08 -159311.44 -2.3166542e+07 -155203.48 -1.1056693e+08 -13.917346 -1.7848992e+06 -234203.86
-36.00242 -96.67712 -9.821641e+07 -1.3989117e+08

fc3.weight f4 [10, 84]
00000000: f6f7 ee51 5764 6351 ce82 ff51 f9d3 3a52
00000010: 5d82 9851 7104 ca52 712b dd4a 5a1b 6451
00000020: 819b 6350 955c e850 b327 7852 4a2f 5552
00000030: 0182 5c52 8b2c d34c 021a 7552 03c2 6d51
00000040: ce5f b150 ac63 8552 7198 034d d737 b052
00000050: 53cd 3951 661c 9452 8e03 3a52 f232 aa50
00000060: bf41 5b52 f329 e352 9fa2 0253 76a6 02c7
00000070: 0ee6 2852 1dbd 5751 872b 014d ef83 4d52
00000080: f8d5 3d52 5eb8 1c51 a02f 9251 94e0 dd4f
00000090: e1c2 da42 cc5a 3c52 6b57 1e4c 204d c050
000000a0: b55b c552 89a3 e451 bb8d 7652 8f29 3051
000000b0: a5db fd52 e5a1 3f52 c59a 2948 a712 d751
000000c0: 49b7 b150 170a a051 ded6 d252 7073 b152
000000d0: df18 9b50 133a d451 253b 4d52 0dd1 8d51
000000e0: 9e67 ae52 3342 a64c a557 0e4d 25b9 4e4c
000000f0: b5ab e550 2974 4152 4758 da47 f2cb 1452
00000100: 8e2e 2a4d 861f b4c7 4f78 b151 e30e a142
00000110: 18dd f651 66be 8752 bfe6 d651 19ac a251
00000120: 77eb 0652 03c1 1c48 a132 1e4d b8e7 9850
00000130: e976 0352 a0c9 2042 38be 2a52 9dbb ff51
00000140: b32a 0643 edff 3b4c cfac 8552 05e1 7551
00000150: e902 6852 2115 db51 d737 ea51 4f28 b652
00000160: 98ea 8751 cb2e b952 64d2 84cc 9a3c dd51
00000170: e8a3 5050 256d 6251 cedc f052 deda cf52
00000180: 9c3d d652 16ae 7dce 8a5c ee52 fb12 5a51
00000190: 9d0b 2d51 1e8c 7452 b70e 9ece dd8b a152
000001a0: 40a9 b251 bec4 8752 4e6a b452 9af1 2551
000001b0: bed1 d552 8eb9 cf52 e4a0 ee52 2e86 1348
000001c0: e5d2 1a52 d14d cf51 9219 9bce e10c c852
000001d0: 08f1 b752 a488 9451 512c 0d52 f1c5 5950
000001e0: 14dc 0243 5aa5 b752 c324 13ce 957e 3b51
000001f0: 58e9 b452 8c5e 5d52 9bcb ef52 b399 a951
00000200: fbb3 e852 9c31 2f52 0154 6648 23b2 5152
00000210: f9e7 a250 ce09 1c52 3582 c052 bda9 a252
00000220: eb6d 1351 c55e 4d52 a719 c852 0a59 0a52
00000230: e92c 9f52 e5b0 47ce 34f7 aace dd25 f8cd
00000240: 8113 5751 0d9e bc52 0b09 1448 9513 9152
00000250: 3a67 ccce 467a 3c46 3977 2b52 ab1a 90c3
00000260: ad4a e251 7dcd 7852 6987 5152 e7a9 1d52
00000270: 38a4 8252 582f 5548 6802 bece 5015 1551
00000280: d98e 7e52 d1a4 1b42 557b a652 df56 7952
00000290: 5784 1643 a5cd e1cd de17 7352 cbbb eb51
000002a0: 5a10 4b52 d41f c151 2214 0552 d5cd 9e52
000002b0: 2cd9 9e51 4c6f d252 692b dd4a fbd1 c151
000002c0: 4d17 6d50 38a6 4551 e7e6 d252 fc34 b552
000002d0: c662 bb52 7d36 d34c 904c d052 00ce 7751
000002e0: e0db 1651 8af2 8a52 7398 034d 2393 b752
000002f0: ddc7 9d51 4948 9a52 ed0d 9e52 30ab 1051
00000300: 0268 ba52 74a0 ec52 9513 0853 05f6 a947
00000310: 9cef 2f52 8a31 b751 8a29 014d 0fab ae52
00000320: 6a4a a152 20f4 8451 085a f851 bbd6 3d50
00000330: e8c6 e342 031a a052 de5e 7e4c cb74 2351
00000340: e894 cd52 b43f 4252 ce88 d152 7a9b 9551
00000350: bf37 0453 819d 4752 c0e6 0048 decf 3652
00000360: e61e b950 8f08 0852 1a9f db52 3cd8 b852
00000370: 679a 0351 824c 3452 4f72 ae52 7638 f151
00000380: 14b2 b552 3542 a64c a657 0e4d b2b2 4e4c
00000390: 25af 4251 8c6f a452 e4f1 a547 52f4 7c52
000003a0: 8e2e 2a4d 27c3 0546 34c1 1652 a102 8b42
000003b0: 2593 0052 5266 8d52 8aaa 3652 cd3a 0a52
000003c0: 1341 6552 2344 ee47 a132 1e4d 4af8 0151
000003d0: 7c61 5f52 8307 1c42 4c23 9152 675f 5952
000003e0: a069 0843 efff 3b4c b23d 8b52 23ea d051
000003f0: ae51 1b52 aec6 9351 c4b1 1f52 5be0 7252
1.2829529e+11 6.1040062e+10 1.371764e+11 2.0060506e+11 8.187777e+10 4.3382895e+11 7.2472885e+06 6.1231964e+10
1.5274477e+10 3.1187053e+10 2.6645448e+11 2.2890535e+11 2.3676848e+11 1.1071599e+08 2.6317583e+11 6.382264e+10
2.3806767e+10 2.8645143e+11 1.3798786e+08 3.7842554e+11 4.9875857e+10 3.180658e+11 1.9973089e+11 2.2843724e+10
2.3542522e+11 4.878307e+11 5.610741e+11 -33446.46 1.8135355e+11 5.7911923e+10 1.3544459e+08 2.2067044e+11
2.0383465e+11 4.2069254e+10 7.848303e+10 7.4449654e+09 109.38062 2.022443e+11 4.1508268e+07 2.581024e+10
4.2382357e+11 1.2274953e+11 2.6473495e+11 4.7288218e+10 5.4515587e+11 2.0576372e+11 173675.08 1.1546636e+11
2.3852632e+10 8.5920506e+10 4.52774e+11 3.8107297e+11 2.0816787e+10 1.1393842e+11 2.2036514e+11 7.613721e+10
3.7453136e+11 8.7167384e+07 1.4925678e+08 5.4191252e+07 3.0825884e+10 2.0771938e+11 111792.555 1.597692e+11
1.784486e+08 -92223.05 9.527846e+10 80.529076 1.3253391e+11 2.9150747e+11 1.15374285e+11 8.7334e+10
1.4486902e+11 160516.05 1.6588238e+08 2.0522582e+10 1.4115892e+11 40.1969 1.8333395e+11 1.3729554e+11
134.1668 4.9282996e+07 2.8706495e+11 6.6002637e+10 2.4912031e+11 1.1761904e+11 1.257449e+11 3.9118016e+11
7.296955e+10 3.97677e+11 -6.96369e+07 1.1877556e+11 1.4001611e+10 6.078086e+10 5.1724832e+11 4.463651e+11
4.6007832e+11 -1.06401114e+09 5.1187738e+11 5.853883e+10 4.645151e+10 2.625807e+11 -1.3258822e+09 3.4691813e+11
9.5917965e+10 2.915607e+11 3.874388e+11 4.4545188e+10 4.5917346e+11 4.4608566e+11 5.1245076e+11 151064.72
1.662408e+11 1.1129547e+11 -1.3010721e+09 4.2960477e+11 3.9501142e+11 7.974345e+10 1.5158347e+11 1.4614513e+10
130.85968 3.9437658e+11 -6.17165e+08 5.033016e+10 3.885045e+11 2.376935e+11 5.1495656e+11 9.1053515e+10
4.99726e+11 1.881129e+11 235856.02 2.251592e+11 2.1864892e+10 1.6754485e+11 4.134091e+11 3.4931622e+11
3.957527e+10 2.2051457e+11 4.2971192e+11 1.4854983e+11 3.4182663e+11 -8.3756474e+08 -1.4341637e+09 -5.2040387e+08
5.7734074e+10 4.0505275e+11 151588.17 3.115494e+11 -1.7146586e+09 12062.568 1.841099e+11 -288.20834
1.2148943e+11 2.6714985e+11 2.2498e+11 1.6929009e+11 2.8055044e+11 218301.38 -1.5939144e+09 4.001923e+10
2.7332957e+11 38.910954 3.5751687e+11 2.6772608e+11 150.51695 -4.7354384e+08 2.6101937e+11 1.26558495e+11
2.1803817e+11 1.03682834e+11 1.428921e+11 3.4102906e+11 8.528105e+10 4.519052e+11 7.2472845e+06 1.0405645e+11
1.5910909e+10 5.3056078e+10 4.529085e+11 3.89139e+11 4.02408e+11 1.1073636e+08 4.4731885e+11 6.6519564e+10
4.0495874e+10 2.983873e+11 1.3798789e+08 3.9422378e+11 8.470788e+10 3.3131885e+11 3.3941923e+11 3.883421e+10
4.0030444e+11 5.0815212e+11 5.844441e+11 87020.04 1.8890981e+11 9.835127e+10 1.3543645e+08 3.750971e+11
3.463691e+11 7.137893e+10 1.33332795e+11 1.2739866e+10 113.88849 3.438156e+11 6.668172e+07 4.3877446e+10
4.4148326e+11 2.085731e+11 4.4997168e+11 8.031982e+10 5.6787095e+11 2.1433524e+11 131995.0 1.9629287e+11
2.484648e+10 1.4606479e+11 4.7163356e+11 3.969509e+11 3.5326947e+10 1.9359443e+11 3.7462104e+11 1.295043e+11
3.9018837e+11 8.71674e+07 1.492568e+08 5.418465e+07 5.226013e+10 3.5312304e+11 84963.78 2.716077e+11
1.784486e+08 8560.788 1.6187163e+11 69.505135 1.3805612e+11 3.0365352e+11 1.961363e+11 1.48423e+11
2.4615982e+11 121992.27 1.6588238e+08 3.4888524e+10 2.398533e+11 39.007336 3.1168122e+11 2.3340212e+11
136.4126 4.9283004e+07 2.9901776e+11 1.1216017e+11 1.6677257e+11 7.9336686e+10 1.7147055e+11 2.6078654e+11

fc3.bias f4 [10]
00000000: 44be c2bc 73a4 fe3d f073 90bd 09b5 993b
00000010: 82e1 c7bd 1eed 07bd 6e88 a43b 63d4 bdbb
00000020: b927 0dbd a8a9 8f3b
-0.023772366 0.1243371 -0.07053363 0.0046907705 -0.09759809 -0.033185117 0.0050211465 -0.0057931407
-0.03446171 0.0043842383
